actor1.pth (torch_old, 183722 bytes, 6 tensors)

fc1.weight f4 [256, 48]
0	0xbd9efbb0	-0.07762849
1	0x3dc18803	0.0944977
2	0x3bb15890	0.005412169
3	0x3c0fca9a	0.008776331
4	0xbd807107	-0.06271558
5	0x3c8d6f36	0.017264944
6	0x3c2b80aa	0.010467688
7	0x3d7e72d4	0.062121227
8	0xbd3ad1d4	-0.045610264
9	0x3e40b662	0.18819574
10	0xbc5a20a2	-0.013313444
11	0xbe089661	-0.13338615
12	0xbdfdf8fb	-0.12401005
13	0xbccb1919	-0.024792241
14	0x3d46b167	0.048509028
15	0xbd2eb770	-0.04265541
16	0xbd3232d8	-0.04350552
17	0x3de333b5	0.11093847
18	0x3ca6733c	0.02031862
19	0xbe8c619e	-0.27418226
20	0xbe0da0de	-0.13830897
21	0x3da6e14c	0.08148441
22	0x3d7127b6	0.058875762
23	0xbe50f9bb	-0.20407765
24	0xbdfcb05a	-0.12338324
25	0x3d43b985	0.047784347
26	0x3b414857	0.002949258
27	0x3ae1f43f	0.0017238929
28	0x3d776374	0.06039758
29	0xbd11f4d5	-0.03563388
30	0x3dc83111	0.09774984
31	0x3bed1404	0.007235052
32	0xbd6f62f4	-0.05844398
33	0x3da6894d	0.08131657
34	0x3d4a3430	0.049366176
35	0xbbf2aedf	-0.0074061
36	0x3dd52280	0.10406971
37	0xbcbce7ab	-0.023059687
38	0x3c874cd6	0.01651613
39	0x3d2255ee	0.03963273
40	0xbd991087	-0.074738555
41	0x3d9a5485	0.07535652
42	0xbbba7a87	-0.005690876
43	0xbe22b82f	-0.15890573
44	0x3e1703d8	0.1474756
45	0x3db12080	0.08648777
46	0x3d27c4b7	0.040959086
47	0xbe01adbb	-0.12663929
48	0x3d94585e	0.07243417
49	0x3ea92dc5	0.33042732
50	0xbdc634f0	-0.09678066
51	0xbce4321c	-0.027855925
52	0xbbd34231	-0.0064470996
53	0xbe14f284	-0.14545637
54	0xbd82b09e	-0.06381343
55	0xbb81e212	-0.0039637173
56	0x3d90b519	0.07065792
57	0x3e8e6e71	0.27818635
58	0xbdbf29b4	-0.09334126
59	0xbde1c136	-0.1102318
60	0xbcd0ac19	-0.025472688
61	0xbdcbce7b	-0.099514924
62	0xbb88028a	-0.0041506933
63	0xbd9219e8	-0.071338475
64	0x3c6d2212	0.014473455
65	0x3e8fd5c3	0.28092775
66	0xbd7949e2	-0.060861476
67	0xbda2320f	-0.07919704
68	0xbc914b06	-0.01773597
69	0xbe7dce92	-0.24785832
70	0xbd9a1e1d	-0.07525275
71	0xbdfe0277	-0.12402814
72	0xbd513c41	-0.051082853
73	0x3e4969ab	0.19669215
74	0x3d87cc20	0.06630731
75	0xbd9203a7	-0.07129603
76	0xbd27f1a2	-0.041001923
77	0xbe1a71e0	-0.15082502
78	0x3d7fba02	0.06243325
79	0xbdf763fd	-0.12079618
80	0xbd1f4fcf	-0.03889447
81	0x3dc6a425	0.09699277
82	0x3b0512e8	0.0020305458
83	0x3e1349fa	0.14383689
84	0x3ca6f787	0.020381702
85	0xbe54a981	-0.20767786
86	0xbccb8633	-0.024844265
87	0x3da04f50	0.07827628
88	0xbd84f1c6	-0.06491427
89	0x3e3d9b44	0.1851626
90	0x3c9f4324	0.019441195
91	0xbd3b2f2f	-0.045699295
92	0xbdaf2623	-0.08552196
93	0xbe647340	-0.2230959
94	0xbd525dcb	-0.05135898
95	0xbbc2437d	-0.0059284554
96	0x3d381d86	0.04495003
97	0x3d604d43	0.054761183
98	0x3d5a6e0d	0.05332761
99	0xbd926caa	-0.07149632
100	0x3da9000e	0.082519636
101	0x3d8769c1	0.06611968
102	0x3cd12443	0.025529986
103	0x3caea762	0.021320049
104	0x3d5da478	0.054111928
105	0x3dc68306	0.096929595
106	0x3d458102	0.048218735
107	0x3afeea3f	0.0019448473
108	0x3de3c742	0.1112199
109	0x3d58d131	0.052933875
110	0x3c8f584c	0.017498158
111	0xbda4164b	-0.080120645
112	0xbce9a5f9	-0.028521525
113	0x3d8d680f	0.06904613
114	0x3c23fb9c	0.010008719
115	0xbc9fae95	-0.019492427
116	0x3e186b76	0.14884743
117	0x3e08ffe4	0.13378865
118	0xbbba8086	-0.0056915907
119	0xbb993584	-0.004675569
120	0x3caaa3e3	0.0208301
121	0xbda10f37	-0.0786423
122	0x3cf49c2a	0.029859621
123	0xbd9fcfba	-0.078032926
124	0xbdf1db44	-0.118094
125	0x3d860fd5	0.065459885
126	0x3dc8bcb0	0.09801614
127	0xbdcfc980	-0.10145855
128	0xbb7d38d9	-0.003863862
129	0x3d30534d	0.04304819
130	0x3cd52c86	0.026022207
131	0x3d8044fd	0.062631585
132	0xbe208a7a	-0.15677825
133	0x3d8ee553	0.06977334
134	0x3db3ccdc	0.08779308
135	0xbd128a13	-0.03577621
136	0x3c80ae25	0.015708039
137	0xbd683668	-0.05669251
138	0xbd8b4279	-0.06799788
139	0xbd42ed7f	-0.047589775
140	0xbe2875ae	-0.16451141
141	0x3dcc6107	0.09979444
142	0x3d1e11e9	0.0385913
143	0xbda27a90	-0.07933533
144	0xbd8fc1dd	-0.07019398
145	0x3e4bd026	0.19903621
146	0xbcefbb9f	-0.02926427
147	0xbbb4332d	-0.0054992647
148	0xbe1277c3	-0.14303498
149	0x3d0e0a33	0.034677695
150	0x3c976b89	0.018483894
151	0xbd91bde0	-0.07116294
152	0xbde4701b	-0.11154195
153	0x3dd6656d	0.10468564
154	0xbc5d3dbd	-0.013503489
155	0xbb6000a0	-0.003418006
156	0xbd5dd26c	-0.054155752
157	0x3c716593	0.01473369
158	0xbd1333d6	-0.035938106
159	0x3c9dead3	0.019277012
160	0xbd045499	-0.03230724
161	0x3da255d1	0.079265244
162	0x3daa610e	0.08319293
163	0xbe25d9e2	-0.16196397
164	0x3be04e5d	0.006845279
165	0xbda39cac	-0.07988867
166	0xbc32a17d	-0.01090276
167	0xbe105dee	-0.14098331
168	0xbd9e31b6	-0.07724325
169	0x3ce8f30c	0.028436206
170	0xbd8115cc	-0.063029855
171	0xbe17c6a3	-0.14821868
172	0x3d36e22a	0.04464928
173	0xbb4ddec8	-0.0031413306
174	0xbd119a2a	-0.035547413
175	0xbe1a8b42	-0.15092185
176	0xbd8490f1	-0.06472958
177	0xbd56e777	-0.052466836
178	0xbcfc6680	-0.030810595
179	0xbd42c793	-0.04755361
180	0x3dad5381	0.08463193
181	0xbcf41622	-0.02979571
182	0x3b676267	0.0035306455
183	0xbde718ec	-0.1128405
184	0xbca513bd	-0.020151014
185	0xbd4d0f4a	-0.05006341
186	0x3da7d552	0.081949845
187	0xbe12b0d9	-0.14325275
188	0x3d56c88b	0.052437346
189	0x3cfdc7e8	0.030979112
190	0xbb08d9d5	-0.002088179
191	0xbe1f9fc9	-0.15588297
192	0xbc650c22	-0.0139799435
193	0xbd8c0b75	-0.06838123
194	0x3dd402af	0.10352074
195	0x39ef50c7	0.00045645816
196	0xbe0f1de7	-0.1397625
197	0xbba88823	-0.005143182
198	0x3e2e57e2	0.17025712
199	0xbcd1af56	-0.025596302
200	0x3d70fc61	0.058834437
201	0xbd85d2c1	-0.06534339
202	0xbcb55091	-0.022133144
203	0xbd347221	-0.044054154
204	0xbdab10d9	-0.08352823
205	0x3dd084bc	0.10181567
206	0xbdb6eeaf	-0.08932244
207	0xbb6ac17d	-0.0035820894
208	0x3d1b1f88	0.037871867
209	0x3d603f55	0.054747898
210	0xbbdb7ea4	-0.0066984463
211	0xbd713cba	-0.058895804
212	0xbe395957	-0.18100487
213	0x3d946fee	0.072479114
214	0x3d124b8c	0.03571658
215	0xbe0017dd	-0.12509103
216	0x3cc2ba6e	0.023770537
217	0xbe8a2b68	-0.2698624
218	0xbd4aa668	-0.049475104
219	0xbe872427	-0.2639477
220	0x3d8d9c20	0.06914544
221	0x3d027365	0.03184833
222	0x3c244561	0.010026307
223	0xbe1318ec	-0.14364976
224	0x3d038fa3	0.032119405
225	0xbed3966b	-0.41325697
226	0x3d36187d	0.044456948
227	0xbd826dc4	-0.063685924
228	0x3d9d6b3f	0.07686471
229	0x3ce20e70	0.027594775
230	0x3dc9d8b4	0.09855786
231	0xbe00bbba	-0.12571612
232	0x3d9347cc	0.071914285
233	0xbeb2a3e1	-0.34890655
234	0x3bc9d959	0.006159943
235	0xbe02225e	-0.12708423
236	0x3e74c455	0.2390302
237	0x3d40624e	0.04696875
238	0x3d8c1d7b	0.068415605
239	0xbe3912a5	-0.18073519
240	0x3cd6bdb2	0.0262135
241	0xbe4047c4	-0.18777376
242	0xbd462e9c	-0.048384294
243	0xbd3cc0a4	-0.046082154
244	0x3df92cb3	0.12166729
245	0xbcb057c4	-0.021526225
246	0xbcffb794	-0.031215467
247	0xbd42c446	-0.047550462
248	0x3da715f7	0.08158486
249	0xbe16367b	-0.1466922
250	0x3da144bc	0.07874438
251	0x3d0350b3	0.032059383
252	0x3da558f4	0.08073607
253	0xbe0752d1	-0.13215186
254	0x3d6ee66b	0.058325212
255	0x3ce51b58	0.02796714

fc1.bias f4 [256]
0	0x3d89e67f	0.06733417
1	0xbc049078	-0.008091085
2	0xbcb3a6f9	-0.021930205
3	0xbdc6b225	-0.09701947
4	0xbe0b0da9	-0.1357943
5	0x3ccdccb0	0.025122017
6	0xbc522a23	-0.012827429
7	0x3e46e281	0.19422342
8	0xbd8e97d6	-0.06962554
9	0xbd8670f0	-0.0656451
10	0xbd80f69e	-0.062970385
11	0x3df0443c	0.11731765
12	0x3d9727f9	0.07380671
13	0x3e12722c	0.14301366
14	0xbe34758a	-0.17622963
15	0xbce50296	-0.027955335
16	0xbd0593cf	-0.032611664
17	0xbdbc126c	-0.09183201
18	0xbdf9f058	-0.12204045
19	0x3e340eca	0.17583767
20	0x3e1f11f7	0.15534197
21	0xbd826d19	-0.06368465
22	0x3da98ad8	0.082784355
23	0xbd82674d	-0.06367359
24	0x3da29c2d	0.079399444
25	0x3c022bb5	0.007944991
26	0x3e5113a0	0.20417643
27	0xbbd0aa83	-0.006367983
28	0xbddfe7f3	-0.10932913
29	0xbd9ef199	-0.07760925
30	0xbdf4966d	-0.11942754
31	0x3e4d5c00	0.20054626
32	0x3d0b77d5	0.034049828
33	0x3deb8038	0.11499065
34	0x3e210875	0.15725882
35	0xbdeafd61	-0.114741094
36	0xbd0311d1	-0.031999413
37	0x3bc5db05	0.006038072
38	0xbe39aab2	-0.18131521
39	0x3c9d7262	0.019219581
40	0x3d958a4c	0.07301769
41	0xbd8e8eec	-0.06960854
42	0xbc6d079d	-0.014467147
43	0xbda1bc7a	-0.07897277
44	0xbd8d139f	-0.06888508
45	0x3cb547d6	0.02212898
46	0xbc27eb3b	-0.010248954
47	0xbda0e793	-0.07856669
48	0x3dc6a39b	0.09699174
49	0x3e5dd592	0.21663502
50	0xbe14a286	-0.14515123
51	0xbdc241f5	-0.094852366
52	0xbda6486f	-0.08119284
53	0xbd81d783	-0.06339934
54	0xbd029bd5	-0.031886894
55	0x3d275e5b	0.04086147
56	0x3dc2e3e4	0.09516123
57	0x3d8f2549	0.069895335
58	0x3e163088	0.1466695
59	0x3cdf38f6	0.02724884
60	0x3d24f599	0.040273283
61	0xbda74470	-0.0816735
62	0xbdab4d27	-0.08364325
63	0xbd59643d	-0.05307411
64	0x3dd68cae	0.10476051
65	0x3d467eb4	0.048460677
66	0xbda257b1	-0.07926882
67	0xbbea4fef	-0.007150642
68	0xbe2aba83	-0.16672711
69	0x3dc18cc2	0.094506755
70	0x3d7724cc	0.060337827
71	0xbe45157a	-0.19246474
72	0x3d85377d	0.06504724
73	0x3e2f6f90	0.17132401
74	0x3e1a5950	0.15073133
75	0x3c8e0bbe	0.017339583
76	0xbda36f17	-0.07980173
77	0xbd057d84	-0.032590404
78	0xbe807a22	-0.2509318
79	0xbe0a60da	-0.13513508
80	0x3cebba43	0.02877534
81	0x3d031f6a	0.03201238
82	0x3d95a359	0.07306547
83	0xba941c48	-0.0011299932
84	0x3db0ec1c	0.08638784
85	0xbd409cb7	-0.047024455
86	0xbe0f5029	-0.13995422
87	0xbcf2a61b	-0.02962022
88	0x3da27f44	0.0793443
89	0x3dd16f67	0.102263264
90	0xbde53920	-0.11192536
91	0x3d314b83	0.043284904
92	0x3da893a5	0.08231286
93	0x3d3fb9c9	0.046808038
94	0xbca715cf	-0.020396141
95	0xbd87e84a	-0.066361025
96	0x3ba28b6e	0.004960469
97	0x3dfa9937	0.12236255
98	0x3df2edf4	0.11861792
99	0x3cc90c68	0.024542049
100	0xbcced309	-0.025247114
101	0xbde86783	-0.11347868
102	0x3dd3f77f	0.103499405
103	0x3db02532	0.086008444
104	0x3d1b2da4	0.037885323
105	0x3d515076	0.051102124
106	0xbaf54f2b	-0.001871561
107	0xbe1ed115	-0.15509446
108	0x3d38dcdb	0.0451325
109	0xbdd57800	-0.10423279
110	0xbe0e235a	-0.13880673
111	0x3c36104e	0.011112286
112	0xbdeee7fb	-0.116653405
113	0xbdf1a462	-0.11798932
114	0xbdab86c5	-0.083753146
115	0xbbb8d079	-0.0056400863
116	0xbe061b09	-0.1309625
117	0x3d952466	0.07282333
118	0xbe6b0f0b	-0.22954957
119	0x3be57f07	0.007003668
120	0xbe295096	-0.16534647
121	0xbd614e8b	-0.055006545
122	0xbe2de828	-0.16983092
123	0xbe04af1b	-0.12957422
124	0xbca6672d	-0.02031287
125	0x3dd89b9d	0.10576556
126	0xbe235f48	-0.15954316
127	0x3e08bf79	0.13354291
128	0x3d896b52	0.06709923
129	0xbd00741f	-0.03136074
130	0xbe0aec08	-0.13566601
131	0xbdbbc788	-0.09168917
132	0xbd68861c	-0.05676852
133	0xbe33766b	-0.17525642
134	0xbb873c69	-0.0041270745
135	0x3e322fe0	0.17401075
136	0xbe0e5606	-0.13900003
137	0xbd1bb9a5	-0.03801884
138	0x3d7ff871	0.06249279
139	0xbe8eaa06	-0.27864093
140	0xbd8d5aba	-0.0690207
141	0xbd5336ad	-0.051565815
142	0xbe40ef71	-0.1884134
143	0xbd611231	-0.05494899
144	0x3e04deeb	0.12975661
145	0x3a66dee7	0.0008807019
146	0x3d8ee7cc	0.069778055
147	0x3e5fad16	0.21843371
148	0x3d0f2235	0.03494473
149	0xbc8fbc5c	-0.017545871
150	0xbd0de700	-0.034644127
151	0x3cc6588b	0.024212142
152	0x3dd89d1e	0.10576843
153	0x3d87c265	0.06628875
154	0x3daf92cd	0.08572922
155	0xbe2f0faf	-0.17095827
156	0xbc7d614c	-0.015465092
157	0x3e12c72b	0.14333789
158	0xbc2afd96	-0.010436436
159	0xbd6d080c	-0.057869002
160	0xbd7b5d3a	-0.061368205
161	0x3db81467	0.089882664
162	0x3cc76f6d	0.024345124
163	0xbe2c58a0	-0.16830683
164	0xbe0ba98c	-0.13638896
165	0xbc151ff9	-0.009101861
166	0xbdfd266b	-0.12360843
167	0x3dcddb3f	0.100515835
168	0xbc8dadf7	-0.017294867
169	0x3d4619fb	0.04836462
170	0x3e478d18	0.19487417
171	0x3ca60bdb	0.020269325
172	0x3d7c9a42	0.06167055
173	0x3d3f11a6	0.04664769
174	0x3d6a3202	0.057176597
175	0xbda09f52	-0.07842888
176	0x3d7cc1ef	0.061708387
177	0xbdfee88d	-0.12446699
178	0x3dee03ad	0.11621795
179	0x3d8a553f	0.06754541
180	0xbdd9fa95	-0.10643498
181	0x3cab38fa	0.020901192
182	0xbccb2523	-0.024797982
183	0xbe0f42bc	-0.13990301
184	0xbe34c6e2	-0.17653993
185	0xbd3733af	-0.044727024
186	0x3cf998d2	0.030468378
187	0x3d917999	0.07103271
188	0xbddff452	-0.10935272
189	0x3e01c28d	0.12671871
190	0x3cf195a2	0.029490296
191	0x3e3d2f87	0.18475161
192	0x3daf9d8a	0.0857497
193	0x3e17241e	0.14759871
194	0xbdf5877f	-0.119887345
195	0x3dc86226	0.09784345
196	0xbc0523c9	-0.008126208
197	0xbe2a2e42	-0.16619208
198	0xbd15ac9b	-0.036541563
199	0xbe5f5031	-0.21807934
200	0x3de771b9	0.11300988
201	0x3d7f2e10	0.062299788
202	0x3d15d1a4	0.036576882
203	0xbe2b1ee4	-0.16711003
204	0xbc964b13	-0.018346345
205	0x3e44b437	0.19209372
206	0x3cd967ad	0.026538694
207	0xbe4c674c	-0.1996128
208	0x3d198787	0.037482765
209	0x3e7229d1	0.23648764
210	0xbd9ff4d3	-0.078103684
211	0xbe0ce726	-0.13760051
212	0x3d838300	0.06421471
213	0x3d71e833	0.059059333
214	0x3d8e0dd0	0.06936228
215	0x3e3e7e80	0.18602943
216	0xbd697d7a	-0.05700443
217	0x3d2da77a	0.042396046
218	0xbdde68b0	-0.10859811
219	0xbcd228ba	-0.025654186
220	0x3d93321f	0.07187294
221	0xbdb6d8aa	-0.08928044
222	0xbdd53d1c	-0.10412046
223	0x3a37912a	0.0007002527
224	0x3e08267f	0.13295935
225	0xbd11419e	-0.035462968
226	0xbe2da8a5	-0.16958864
227	0x3d50083d	0.050789107
228	0x3e011a5e	0.12607715
229	0xbda44562	-0.08021046
230	0xbd8dac68	-0.069176495
231	0x3d9f4303	0.07776453
232	0x3caa9800	0.020824432
233	0xbe371f42	-0.17883018
234	0xbe179038	-0.14801109
235	0x3dae56eb	0.08512672
236	0xbc110605	-0.008851533
237	0x3e2c940d	0.16853352
238	0xbd1c9072	-0.03822369
239	0xba7dbf6d	-0.0009679709
240	0x3da24565	0.07923392
241	0xbe2af1fd	-0.16693874
242	0x3cd21d19	0.02564864
243	0x3a0c03f2	0.0005341164
244	0xbdc3470a	-0.09535034
245	0x3c316e54	0.010829527
246	0xbe4409b7	-0.19144331
247	0xbe179fbb	-0.14807026
248	0xbc2a8955	-0.010408719
249	0x3e31bf3e	0.1735811
250	0xbb82950a	-0.003985052
251	0xbd811dbb	-0.06304499
252	0xbdbba8fb	-0.0916309
253	0xbd5525ab	-0.052037876
254	0x3d8eb033	0.06967201
255	0xbe7349f1	-0.23758675

fc2.weight f4 [128, 256]
0	0xbdaabc5b	-0.08336707
1	0x3cb8db06	0.022565376
2	0x3dbdcd40	0.09267664
3	0x3b6bdd5f	0.0035990102
4	0xbd874141	-0.06604243
5	0xbd246311	-0.04013354
6	0x3d2d220e	0.042268805
7	0xbd0ccb58	-0.03437361
8	0xbd687323	-0.056750428
9	0xbc1b4cc0	-0.009478748
10	0xbd729c4e	-0.059231095
11	0x3d314e0c	0.043287322
12	0xbd80030c	-0.06250581
13	0xbd8f5616	-0.069988415
14	0x3db23bd2	0.08702816
15	0xbd42df37	-0.047576156
16	0xbe281d1b	-0.16417353
17	0xbd1ba92c	-0.03800313
18	0xbcc1f0b7	-0.023674352
19	0xbe88692f	-0.2664275
20	0xbd0f74de	-0.035023563
21	0x3cbc1a27	0.02296169
22	0xbdb697b8	-0.08915657
23	0x3c0a285d	0.008432475
24	0xbd3a5658	-0.0454925
25	0x3b199e06	0.0023440137
26	0x3d24323c	0.04008697
27	0x3d25ef11	0.040511195
28	0xbdc11f77	-0.094298296
29	0xbde3a06f	-0.11114585
30	0x3bb97e26	0.00566079
31	0xbcec7fd9	-0.028869556
32	0x3dd98013	0.10620131
33	0x3ca601af	0.020264475
34	0xbdced81a	-0.10099812
35	0xbc40817e	-0.011749623
36	0xbdd768af	-0.10518014
37	0xbd76b41e	-0.060230367
38	0x3ca816d8	0.020518705
39	0xbd9c116a	-0.07620509
40	0xbe1c1ec4	-0.15246111
41	0x3dc33250	0.09531081
42	0xbda14c96	-0.07875936
43	0xbd9dc967	-0.0770443
44	0xbdd69957	-0.10478466
45	0xbd78f330	-0.060778797
46	0xbddbfda3	-0.10741737
47	0x3d0c754f	0.03429156
48	0xbd13f44a	-0.036121644
49	0x3eb1dd23	0.34739026
50	0xbdbca675	-0.09211437
51	0xbd2b3fe3	-0.041808974
52	0x3dbfd7e0	0.09367347
53	0x3dcb0eb1	0.099149115
54	0x3b889038	0.004167583
55	0xbd2e6c30	-0.042583644
56	0xbd64720e	-0.055772834
57	0x3dab0052	0.083496705
58	0xbda9debe	-0.08294438
59	0x3d45fe9e	0.048338525
60	0xbc8bd80c	-0.017070793
61	0x3d8ba4cd	0.06818543
62	0x3c586be2	0.013209315
63	0xbcd19bfe	-0.025587078
64	0x3da96fc1	0.082732685
65	0x3d88112b	0.066438995
66	0xbde13751	-0.10996879
67	0xbd9acfed	-0.0755919
68	0xbcc750cd	-0.024330521
69	0x3d0b3e97	0.033995237
70	0xbcc7c1c7	-0.024384392
71	0x3bca6956	0.006177108
72	0x3cffe957	0.031239195
73	0x3d173f10	0.036925375
74	0xbca6c084	-0.02035547
75	0x3e18a4c2	0.149066
76	0x3d2900b1	0.041260425
77	0x3d5bb4fe	0.053639404
78	0x3d25b211	0.04045302
79	0xbc4a7958	-0.012358032
80	0x3d3fdc4f	0.046840962
81	0xbc2540e4	-0.010086272
82	0x3d8d91d1	0.06912578
83	0xbd255f99	-0.040374372
84	0x3d357962	0.044305213
85	0xbc5b99de	-0.013403384
86	0x3d7c7f4a	0.06164483
87	0x3d8f41f6	0.06995003
88	0xbdea748f	-0.11448013
89	0x3d3c7068	0.046005636
90	0xbe0dc02b	-0.13842838
91	0xbd8b6fcd	-0.06808434
92	0x3d23ae5f	0.039961215
93	0x3e38930a	0.18024841
94	0x3d3130c0	0.043259382
95	0xbc9c68d7	-0.01909296
96	0xbd880b9a	-0.06642838
97	0x3d45c703	0.048285495
98	0x3d41d214	0.047319487
99	0x3d3a8bd7	0.045543518
100	0x3d1aae9f	0.037764188
101	0xbe9cfb62	-0.3066054
102	0x3d9d111d	0.0766928
103	0xbda42912	-0.08015646
104	0xbe8c546b	-0.27408156
105	0x3e15942f	0.14607309
106	0xbbcba322	-0.0062145153
107	0x3d271f55	0.040801365
108	0x3acf6fa3	0.0015826117
109	0x3d6bfcae	0.05761402
110	0x3e2b2d19	0.16716422
111	0x3ddf018d	0.10888968
112	0xbd7717c5	-0.060325403
113	0xbde25a3f	-0.11052369
114	0x3b0fa521	0.0021918493
115	0x3d978d70	0.07400024
116	0xbdf1e540	-0.11811304
117	0xbc2795e4	-0.010228608
118	0xbd88219c	-0.066470355
119	0x3cf00ab7	0.029301984
120	0xbda74866	-0.08168106
121	0xbd51d5e0	-0.051229358
122	0xbd853836	-0.06504862
123	0x3d5e9904	0.054345146
124	0x3d3a64d9	0.045506332
125	0xbce6ac73	-0.028158402
126	0x3d9ff02f	0.07809483
127	0x3ca1e040	0.019760251
128	0xbcc6189b	-0.024181655
129	0x3dcb7144	0.09933713
130	0x3e038791	0.12844683
131	0xbe015b6d	-0.12632532
132	0xbdcfc553	-0.101450585
133	0x3d962d65	0.07332877
134	0x3ceef708	0.029170528
135	0xbe09cfca	-0.13458171
136	0xbcdece23	-0.027197903
137	0x3d3b35aa	0.045705475
138	0xbd42ee6d	-0.04759066
139	0xbcd1f27d	-0.025628323
140	0x3e14a23f	0.14515017
141	0x3d1200f6	0.035645448
142	0x3dd73353	0.10507836
143	0xbd70f91a	-0.05883131
144	0x3d9b6a97	0.0758869
145	0x3ce15f53	0.027511274
146	0xbc4fcfac	-0.01268379
147	0x3b1780cd	0.0023117543
148	0xbcfc77e8	-0.030818895
149	0x3d0ca727	0.034339096
150	0xbbe62bd2	-0.0070242668
151	0xbdafd3c7	-0.08585315
152	0x3e0a21d2	0.13489464
153	0xbd845831	-0.06462134
154	0xbd051906	-0.032494567
155	0x3da8c7ab	0.08241209
156	0x3d30c6e7	0.043158438
157	0xbd7f3f7f	-0.062316414
158	0xbcf94c94	-0.030432023
159	0xbde526e1	-0.11189056
160	0xbb59a6e6	-0.0033211051
161	0x3d1842f0	0.03717321
162	0xbde5c0e6	-0.11218433
163	0xbd6f560b	-0.058431666
164	0x3dac9759	0.08427305
165	0x3d59c9fc	0.053171143
166	0x3d9b54e4	0.07584551
167	0x3d6b581e	0.057457082
168	0x3cef113d	0.029183025
169	0x3bf947aa	0.00760742
170	0x3bb30757	0.0054635215
171	0xbba06b95	-0.0048956373
172	0x3c439f9c	0.011939909
173	0xbdc00c53	-0.09377351
174	0x3d59762a	0.053091206
175	0x3c01acfd	0.007914779
176	0x3d710185	0.05883934
177	0xbb4dbff2	-0.0031394926
178	0x3bbc2736	0.005741979
179	0xbe133592	-0.14375904
180	0x3e0551d6	0.13019499
181	0x3cd49503	0.02594996
182	0x3d68ae75	0.056807
183	0x3d739b5f	0.059474345
184	0x3cde80bc	0.027160995
185	0x3de17651	0.11008895
186	0x3d818c1d	0.063255526
187	0x3ce70c22	0.028204028
188	0xbdb225c4	-0.086986095
189	0x3c58719d	0.013210681
190	0x3d931843	0.07182362
191	0xbd895381	-0.0670538
192	0xbdc0d41a	-0.09415455
193	0xbd36b30f	-0.044604357
194	0xbd209dd0	-0.039213
195	0xbdcb14ce	-0.099160776
196	0x3d58a242	0.052889116
197	0x3dd8b6aa	0.105817154
198	0xbbd435f5	-0.0064761587
199	0xbd8354ac	-0.06412634
200	0x3cf2fb63	0.029660886
201	0xbd8eefd3	-0.069793366
202	0xbd1904e7	-0.03735819
203	0x3e6fb27e	0.23407933
204	0x3cfa18fd	0.030529493
205	0xbd630c87	-0.05543187
206	0xbcfd24d2	-0.030901346
207	0x3e47076c	0.19436425
208	0xba4f033d	-0.0007896906
209	0x3d5b8889	0.053597007
210	0xbd2a48a6	-0.04157319
211	0x3d9183d7	0.071052246
212	0xbd9ada32	-0.07561149
213	0x3e012c99	0.12614669
214	0x3c4caaeb	0.012491922
215	0xbd1649e9	-0.03669158
216	0x3d59302c	0.053024456
217	0x3db0ceaf	0.08633172
218	0x3d5726a3	0.05252708
219	0xbdb4dcaa	-0.08831151
220	0x3d30da3c	0.043176875
221	0xbdc94b16	-0.09828775
222	0x3c1b6912	0.0094855
223	0xbd048e8f	-0.032362517
224	0xbd7d69de	-0.06186854
225	0xbda492fc	-0.080358475
226	0x3e04ad0d	0.12956639
227	0xbde44ec2	-0.11147834
228	0xbca61416	-0.02027325
229	0xbdbe4dfe	-0.092922196
230	0xbc34ca3b	-0.011034544
231	0x3d2d6c97	0.042339887
232	0xbd380a5c	-0.044931754
233	0x3e00d046	0.1257945
234	0xbe28486b	-0.16433875
235	0xbd5cb5cb	-0.05388431
236	0x3dcc0a86	0.09962945
237	0xbd3e85f0	-0.04651445
238	0x3cdf7e8d	0.027282024
239	0x3de0175f	0.10941958
240	0x3d9a90cd	0.0754715
241	0xbe0029e5	-0.12515981
242	0x3e0321e3	0.12805896
243	0xbdc11d68	-0.09429437
244	0xbd43db60	-0.047816634
245	0x3c6a85b0	0.0143141
246	0x3cfbbb54	0.030728973
247	0x3dcc029d	0.09961436
248	0xba936520	-0.0011245348
249	0x3ba2b4a5	0.004965382
250	0xbdf64d5c	-0.12026474
251	0x3e03f2a6	0.12885532
252	0x3b3ecd42	0.0029114042
253	0x3d32a397	0.043613043
254	0xbdd70ea0	-0.10500836
255	0x3d9d003d	0.07666061

fc2.bias f4 [128]
0	0x3bb004bb	0.0053716577
1	0x3b1534bf	0.0022767035
2	0x3ccfe062	0.025375549
3	0x3d1f48e3	0.03888787
4	0xbd55335a	-0.052050926
5	0x3d7cea16	0.06174668
6	0xbd850c7b	-0.06496521
7	0xbc31112a	-0.010807315
8	0xbcf1b85e	-0.029506858
9	0x3dc22eb1	0.09481562
10	0x3d10a46f	0.035313066
11	0x3db82995	0.08992306
12	0xbdd8e5f1	-0.10590733
13	0xbbd3a4b0	-0.0064588413
14	0x3d96e3e3	0.07367685
15	0xbd7c53e0	-0.061603427
16	0xbd089ba4	-0.033351555
17	0xbd04e8f2	-0.032448716
18	0x3da5926d	0.08084569
19	0xbd8737cd	-0.0660244
20	0x3cb095c4	0.021555789
21	0xbd91e1bf	-0.07123136
22	0x3d0a3af4	0.03374763
23	0x3ce85ac4	0.028363593
24	0x3c40911d	0.011753348
25	0x3d8b8d19	0.068140216
26	0x3de3d098	0.111237705
27	0xbdb4a841	-0.088211544
28	0xbc66dfad	-0.014091414
29	0xbdfa6eeb	-0.12228187
30	0xbdcb98ae	-0.09941231
31	0xbc7f1680	-0.015569329
32	0xbc337e37	-0.010955385
33	0xbcbda913	-0.02315191
34	0xbd2e5015	-0.04255684
35	0xbdcfa109	-0.10138137
36	0xbdb20757	-0.08692806
37	0x3c8b6f6c	0.017020904
38	0xbd9683c5	-0.07349352
39	0x3df07d01	0.117425926
40	0xbd620c73	-0.055187654
41	0x3d44be90	0.048033297
42	0x3d744bcf	0.05964261
43	0xbd8e5434	-0.06949654
44	0x3cc0c914	0.023533382
45	0xbd1b241a	-0.037876226
46	0xbddce2c7	-0.10785442
47	0xbdc03b15	-0.09386269
48	0xbcb0b98a	-0.021572847
49	0xbd299705	-0.04140379
50	0x3e038811	0.12844874
51	0x3d64cdab	0.055860203
52	0x3cb927c1	0.022601964
53	0xbdbf6ff6	-0.09347527
54	0xbdaae5fd	-0.08344648
55	0x3b93d3b4	0.004511321
56	0xbde7fbac	-0.113272995
57	0xbd2f6576	-0.04282137
58	0x3daf1bb0	0.08550203
59	0xbc7b5203	-0.015339377
60	0xbd4f817c	-0.050660595
61	0x3da9aef4	0.08285323
62	0xbd93b466	-0.07212143
63	0x3d1861bd	0.037202585
64	0xbc4eea77	-0.012629143
65	0x3c4f3a39	0.012648159
66	0xbca03325	-0.019555638
67	0xba8ddbbb	-0.0010822931
68	0x3d728b40	0.05921483
69	0x3dc5f61b	0.096660815
70	0x3cd954f9	0.026529776
71	0xbd4e4458	-0.050358146
72	0x3ccd9d45	0.025099406
73	0x3be032da	0.0068419995
74	0xbc9e94af	-0.019358007
75	0xbc3cfe1c	-0.011535194
76	0x3d930fe3	0.071807645
77	0xbc31abc7	-0.010844178
78	0xbe01701a	-0.1264042
79	0x3dad1abf	0.08452367
80	0x3c8a0d7c	0.016852133
81	0xbd3290ed	-0.043595243
82	0xbce279f4	-0.027646042
83	0xbd71a16f	-0.058991846
84	0xbdf31aed	-0.1187037
85	0xbccff9c1	-0.025387647
86	0xbdc109fc	-0.094257325
87	0x3dbac56d	0.09119687
88	0x3c9c83b5	0.019105772
89	0x3d49fbfe	0.049312584
90	0xbcf51fa3	-0.029922312
91	0x3daf16ee	0.08549295
92	0xbd816e8e	-0.06319915
93	0x3d49bbd0	0.049251378
94	0xbd84dda3	-0.06487586
95	0xbc85d625	-0.016337464
96	0xbd5171f3	-0.05113406
97	0xbcf75b80	-0.030194998
98	0x3b156eeb	0.0022801708
99	0x3d90dbb5	0.07073156
100	0xbcde0b92	-0.027105127
101	0x3dc3ca53	0.09560075
102	0xbd15b839	-0.03655264
103	0x3d7f209e	0.062286966
104	0xbca585c1	-0.02020538
105	0xbd412c14	-0.047161177
106	0x3d895744	0.06706098
107	0x3d64c22b	0.055849236
108	0xbd515936	-0.05111047
109	0xbd34d0eb	-0.044144552
110	0xbc71db90	-0.01476182
111	0xbdc1d34e	-0.09464131
112	0xbd743573	-0.059621286
113	0xbd664192	-0.056214876
114	0xbcf6f4cc	-0.030146025
115	0x3de105ce	0.10987435
116	0x3c83c27f	0.016083954
117	0x3d12d8c5	0.03585126
118	0x3bce0802	0.0062875757
119	0x3d237c25	0.039913315
120	0xbd97d619	-0.07413883
121	0xbd4df112	-0.05027873
122	0xbd67ed51	-0.056622807
123	0xbc84a0cb	-0.016189953
124	0x3de51706	0.11186032
125	0xbc675b3c	-0.014120873
126	0x3d96b16a	0.07358058
127	0x3c526c42	0.0128431935

fc3.weight f4 [2, 128]
0	0xbd830337	-0.063970976
1	0xbd859770	-0.06523025
2	0x3d766f75	0.060164887
3	0x3d343611	0.043996874
4	0x3cbde26c	0.023179255
5	0x3bdf3a66	0.0068123816
6	0x3d749f6c	0.05972235
7	0xbccf642d	-0.025316322
8	0xbcb4a23a	-0.022050012
9	0x3c058c63	0.008151147
10	0x3e011669	0.12606205
11	0x3da624a6	0.08112459
12	0xbe283374	-0.16425878
13	0xbe17e6c9	-0.14834131
14	0x3d48a321	0.048983697
15	0xbe34cf97	-0.17657314
16	0x3da0d0a2	0.078522936
17	0x3dc9ae46	0.09847693
18	0x3e2e4cdf	0.17021511
19	0xbdf66ec7	-0.12032848
20	0x3aee4c29	0.0018180656
21	0xbedd38bf	-0.43207356
22	0x3ec06b1a	0.37581712
23	0xbe000598	-0.12502134
24	0xbb7cc7a3	-0.0038571141
25	0x3dcddc93	0.10051837
26	0x3ceb3378	0.028711066
27	0xbe02b404	-0.12763983
28	0xbe060517	-0.13087879
29	0xbe1dcc0c	-0.15409869
30	0xbe21bb99	-0.15794219
31	0xbc0b808c	-0.008514535
32	0x3b186026	0.0023250668
33	0xbe2298c1	-0.15878583
34	0x3de2f6ed	0.110822536
35	0xbdb2efc4	-0.08737138
36	0xbc9769fd	-0.018483156
37	0xbe152545	-0.14564998
38	0x3cb30622	0.02185351
39	0x3ca385a1	0.01996118
40	0xbcfc0ded	-0.03076836
41	0x3d188195	0.037232954
42	0x3e5ca660	0.21547842
43	0xbe1ed6ce	-0.15511629
44	0xbd459871	-0.048241083
45	0x3db8f999	0.09031982
46	0xbe91df15	-0.2849051
47	0x3e2a8da3	0.16655593
48	0x3c6b1fe9	0.01435087
49	0xbe1759ac	-0.14780301
50	0x3da248b3	0.079240225
51	0xbda8081e	-0.08204673
52	0x3d4c365a	0.04985652
53	0xbe0f13d3	-0.13972406
54	0xbe81f5d6	-0.2538287
55	0x3da92af8	0.08260149
56	0xbe86e6d1	-0.26347974
57	0xbdbb6057	-0.09149235
58	0x3df2bd74	0.118525416
59	0xbe2224a3	-0.15834288
60	0xbe4189c6	-0.18900213
61	0x3d99c28e	0.075078115
62	0xbe2cb471	-0.16865708
63	0x3c3804dc	0.011231627
64	0x3e348966	0.17630538
65	0x3d06c6ff	0.03290462
66	0x3c4826ad	0.012216252
67	0x3d2e8eb8	0.042616576
68	0x3e5f7241	0.21820928
69	0x3d91f3e7	0.07126599
70	0xbe110c73	-0.14164905
71	0xbd93e5b7	-0.07221549
72	0xbe0b5c9f	-0.13609551
73	0xbe34ec6a	-0.1766831
74	0x3e18c899	0.14920272
75	0xbd297cbc	-0.04137872
76	0xba397135	-0.0007074059
77	0xbdb85b89	-0.09001834
78	0xbe48e546	-0.19618711
79	0x3d952171	0.07281769
80	0x3d09d3a9	0.03364912
81	0xbe2c954e	-0.1685383
82	0x3cb406b8	0.02197586
83	0xbd466eb9	-0.048445437
84	0xbbe2ffb7	-0.0069274562
85	0x3d4b3883	0.04961444
86	0xbe2f068d	-0.17092343
87	0x3c982a6b	0.018574914
88	0xbe5867d9	-0.21133365
89	0x3b9659ef	0.0045883576
90	0x3c922093	0.017837798
91	0x3dbc6bcd	0.09200249
92	0x3de95de4	0.11394861
93	0x3dc52445	0.096260585
94	0xbe09f57a	-0.13472548
95	0xbafe19c8	-0.0019386346
96	0xbe19630e	-0.14979193
97	0x3d86c06d	0.06579671
98	0xbda8d2b2	-0.08243312
99	0x3cd07342	0.025445584
100	0xbaa0ba96	-0.0012262638
101	0x3d142d7c	0.03617619
102	0x3d566b31	0.05234832
103	0x3d234445	0.03986003
104	0x3d51fc10	0.051265776
105	0xbe04c9b7	-0.12967573
106	0xbda4e853	-0.08052125
107	0x3d3417b8	0.043967932
108	0xbcab1665	-0.020884702
109	0xbd9b1ca4	-0.07573822
110	0xbe62eda5	-0.22160967
111	0xbd0ddec7	-0.034636285
112	0xbe54674b	-0.20742528
113	0xbe5bcb4d	-0.21464272
114	0xbe409518	-0.18806875
115	0x3dc5ad88	0.09652239
116	0xbcb83de4	-0.02249045
117	0xbd6b894e	-0.05750399
118	0xbe307860	-0.1723342
119	0x3cf70f87	0.030158771
120	0xbd3c82c7	-0.046023156
121	0xbe6ae862	-0.2294021
122	0xbcd1879a	-0.025577355
123	0x3b6dc44b	0.003628033
124	0x3cf5bbcc	0.029996775
125	0xbdf7f5a1	-0.12107397
126	0x3e0b4ff4	0.13604718
127	0xbdb214da	-0.08695383
128	0xbd5361be	-0.051606886
129	0xbd81a0a8	-0.06329471
130	0x3d4a9ac1	0.04946399
131	0x3dcb2b84	0.09920409
132	0xbe1800e1	-0.14844085
133	0x3e5271a2	0.2055116
134	0xbce056d3	-0.027385151
135	0x3e129575	0.14314826
136	0x3e19f1f9	0.15033711
137	0xbd840843	-0.06446888
138	0x3c0c34a1	0.00855747
139	0x3e69e129	0.22839798
140	0x3c261eee	0.01013921
141	0x3d95670d	0.07295046
142	0xbc2320e8	-0.009956576
143	0x3d87a6bf	0.06623601
144	0xbeaff7e2	-0.34368807
145	0xbdc52f04	-0.09628108
146	0xbd58136e	-0.052752905
147	0x3c82c020	0.015960753
148	0xbd85b8bc	-0.06529376
149	0xbdb1f8fa	-0.08690067
150	0x3efae142	0.48999983
151	0xbe254edf	-0.16143368
152	0xbe065aa7	-0.13120519
153	0x3db26fb7	0.08712714
154	0xbd0ccfad	-0.034377743
155	0x3ed53dcf	0.4164872
156	0xbd8786a1	-0.06617475
157	0x3dcff562	0.10154225
158	0xbe303732	-0.17208555
159	0xbe5306eb	-0.20608108
160	0xbd0becc1	-0.034161333
161	0x3ddb7aa1	0.10716749
162	0xbb5e1634	-0.0033887746
163	0xbd14ea1a	-0.03635607
164	0x3e5256af	0.2054088
165	0x3ea2dd50	0.31809473
166	0x3d5cacf8	0.053875893
167	0xbd3691c4	-0.044572607
168	0x3df6b1c4	0.12045625
169	0x3e1fe0e6	0.15613136
170	0xbeaee03e	-0.34155458
171	0x3da4e203	0.08050921
172	0xbe5c5ee4	-0.21520573
173	0xbe4421ae	-0.19153473
174	0x3e3f6bd4	0.18693477
175	0x3dd2062a	0.10255082
176	0x3c238438	0.009980254
177	0x3d2215cc	0.03957157
178	0x3d96a25b	0.073551856
179	0xbe8cb6a7	-0.27483103
180	0x3de8bf69	0.113646336
181	0x3e18f6e6	0.14937934
182	0x3d05dbba	0.03268025
183	0x3dbce07a	0.09222503
184	0xbe609baa	-0.21934381
185	0xbdfd9dfe	-0.1238365
186	0xbced5563	-0.02897138
187	0xbce4d9e1	-0.027935924
188	0x3dc0ced7	0.094144516
189	0x3e1d2672	0.15346697
190	0x3deae83a	0.11470075
191	0xbd70bde9	-0.058774862
192	0xbd938b1b	-0.07204267
193	0x3e841bd3	0.25802478
194	0x3e343147	0.17596923
195	0xbb0e29d0	-0.0021692403
196	0xbd0721fc	-0.032991394
197	0x3e6ab909	0.22922148
198	0xb9ee049c	-0.00045398332
199	0x3de29ed2	0.11065449
200	0x3ca0dd06	0.019636642
201	0xbdfe89ca	-0.12428625
202	0xbdadd900	-0.08488655
203	0x3e7d47ff	0.24734496
204	0xbd5eb4ce	-0.054371648
205	0xbd20a57a	-0.03922031
206	0x3d9250bd	0.07144306
207	0x3e9ab890	0.30218935
208	0xbe39a587	-0.1812955
209	0x3e254c98	0.161425
210	0x3b153fa9	0.002277354
211	0xbd1ab3aa	-0.037768997
212	0xbdf9e69f	-0.122021906
213	0xbe4ba56e	-0.19887325
214	0x3e5b22a5	0.21399935
215	0x3aa78427	0.0012780473
216	0x3d696fab	0.05699126
217	0x3e3db185	0.1852475
218	0x3dcc7cbc	0.09984729
219	0x3d975c9c	0.07390711
220	0x3dc0fcdd	0.0942323
221	0x3dbb119f	0.0913422
222	0xbc8de804	-0.017322548
223	0x3dbf67d0	0.093459725
224	0xbdfb1ccc	-0.12261352
225	0xbd33c33e	-0.04388737
226	0x3d531d30	0.051541507
227	0x3d0775d4	0.033071354
228	0x3e330fcc	0.17486495
229	0x3d893f42	0.067015186
230	0xbdb415b4	-0.08793202
231	0xbda3e86b	-0.080033146
232	0x3de73fca	0.11291464
233	0x3e1c264f	0.15248989
234	0xbde2ec31	-0.11080206
235	0x3e823f53	0.25438938
236	0xbea1bb52	-0.31588227
237	0xbc85bde7	-0.016325904
238	0xbe12277d	-0.14272876
239	0x3e05261f	0.13002823
240	0xbdab1a5b	-0.08354636
241	0x3e30a36d	0.17249842
242	0xbd5c41eb	-0.0537738
243	0xbc7bcf3f	-0.015369236
244	0xbe0bad35	-0.13640292
245	0x3c8285bf	0.015932916
246	0x3df04530	0.117319465
247	0x3d752cd4	0.059857205
248	0x3e1b0d4a	0.15141788
249	0x3e1c4f45	0.15264614
250	0x3dfae18a	0.122500494
251	0xbde04cb0	-0.10952127
252	0xbd77c593	-0.060491156
253	0x3e670d22	0.22563604
254	0xbce587b6	-0.028018814
255	0x3daf18c5	0.08549646

fc3.bias f4 [2]
0	0x3ddd3841	0.10801745
1	0xbde32b14	-0.11092201
