actor0.pth (torch_old, 183722 bytes, 6 tensors)

fc1.weight f4 [256, 48]
00000000: 9f7c 3e3c 6b5c 5dbe f572 853d 9481 a4bd
00000010: 7b5c 2e3d 8b2e 04bd 69cd 8f3d fe05 ddbc
00000020: 3fe9 973c 9055 e9bd 9ac3 5b3c aa97 b2bd
00000030: 2a32 84bd 6090 41bd 4116 9a3d 8e24 673b
00000040: acff 2f3d d50d 0dbe 05ed 68bc 6d4d 7d3d
00000050: 4ef4 f8bd 4c97 553d d764 c73c b41c 073e
00000060: 6f44 b33c eff7 40be 3b03 f9bc 9995 3bbe
00000070: 2ddb 37bd 396d aebd 8de4 833d dff0 35be
00000080: 8540 813d 75c6 64be 5dc9 303d 77b0 efbd
00000090: f5b5 363d cc77 3abd 03ed 283c c159 8fbd
000000a0: 68ee 883c 7745 78be 7c65 95bd bcfd b0bd
000000b0: 58dd 053e 7015 6a3d b66a d7bc b1d2 5dbd
000000c0: 95d6 9d3d 7b72 7b3e d404 a8bc 46bb 3cbe
000000d0: c7d0 80bd e8a0 29be f018 4c3c e443 24be
000000e0: a01d a03d b6c5 3a3e 2f0f 81bd d6b5 f2bd
000000f0: 5353 c4bd dd19 b7bd 4267 d63c 0c0f a3bd
00000100: dffc d8bc 515d fb3d 8c83 b3bc defe 4ebd
00000110: ba84 bbbd aed8 31be 61b4 14bd 7b4e c3bd
00000120: 92fc 0abc a7fd a33e 0cd0 c3bc 2bcb 123d
00000130: cb21 7d3c 2420 2fbe 708c e3bc d6d6 5fbc
00000140: f952 143d e6c6 533e bd08 04bd 0878 2e3d
00000150: b5e5 b93d 9150 4abe b21d 72bd 771e bcbc
00000160: aef5 08bd 9678 3c3e a1c5 4e3d f46a 22be
00000170: df9f 3fbc 927d 18be 8072 a6bc ab62 f3bd
00000180: a17d 0b3e 4a15 c8bc 37cf aebc 5595 c7bd
00000190: 6f55 273e ba75 ecbc 3a44 49bd 4af1 97bb
000001a0: e8b1 033e 9c9d 07bb c918 82bc 2c40 043e
000001b0: ed70 bd3d ea0d 013d c5e0 3ebd 04dc 403d
000001c0: 8c41 2a3d cfc8 d33d 5b98 59bd 4416 0a3e
000001d0: 9ed5 fd3d 4abb 5f3d d5f3 8cbd 8442 193e
000001e0: 215a 663d e0f5 c8bd 369a d2bd 65a4 40be
000001f0: 87c3 4bbe 10dd f1bc 1309 0ebd d5a0 58be
00000200: 6f84 5c3b c5f3 c8bd 0910 91bc 682a 13be
00000210: dd5f 0dbe 2707 463d 037c 343d 98ef 77be
00000220: fd2f 9e3c e5e5 24be 7b31 99bd ea1f 2abe
00000230: a0f4 0ebe 70fc a83c 2633 023d b0a1 4abe
00000240: e78c 383d 453e a03d 5abc 02bd defa 4c3e
00000250: d99d 9cbd 59a5 303d 72ae 813c febd 093e
00000260: 3d27 e43c 9d40 003d e343 813c 5ab4 443d
00000270: 271e 603c 338d 9c3d 8911 dabb 15d5 903d
00000280: a077 f93d 1799 e33c 0430 f73d a994 bc3d
00000290: 0caa 2a3d 113b 263d 9eef d93c 0f8c e73d
000002a0: 3d1c 193d 6666 90bd c9ce 5abd 47e7 26be
000002b0: cf83 b3bc 31f0 ad3b 437e d4bc dfab 29be
000002c0: 24f6 163d 4725 eabd a05f 4fbb b5e2 243d
000002d0: 9c98 893c e3b5 023d 4968 ff3c 4d11 cdbc
000002e0: b972 703d bdad 7cbd e3e6 133d 512e ba3d
000002f0: 6050 903c b315 1b3e f751 44bd d050 a03d
00000300: c498 83bd 9b86 f0bd 1a32 1cbc 6020 98bd
00000310: 0ff8 07bc 21f9 73bc 104d 6a3d ce7b cdbd
00000320: aa81 cf3c 0d40 e8bd fbe6 2cbc 6df5 c6bc
00000330: 3b08 4b3c 4831 293d ab37 9fbd 7d99 843c
00000340: f07b 033d f600 c6bc 74b8 933c 53d6 bfbc
00000350: 4edf 9ebd 1791 983b 3099 773d 9f86 b7bd
00000360: 3060 2b3b 8e4f e63d b888 f9bc f795 2bbd
00000370: f83f 7fbd 0e0e b53c 80e7 ed3c cd93 a03d
00000380: 78b4 0bbd a5e6 f53c bba6 98bd 52a8 a23d
00000390: 801a 9cbc 1cd2 06bd 246b a7bc 9174 8e3c
000003a0: f6b4 a9bb 7d17 b73d e22f febc fbac 9f3c
000003b0: d5da 0a3e dcd5 aabc 10d1 ff3c c8ed 0bbd
000003c0: ccb4 febc e98e 10be f540 42bc d99b 2abe
000003d0: d847 3fbd 4681 6a3d 8d16 ae3b 951c 2cbe
000003e0: 79fd 313d ab87 d7bd 8666 12bc ef6a 3ebe
000003f0: b94d 59bd a5fd 56bd 9e78 f0bc b99b 42be
0.011626392 -0.21617286 0.06516067 -0.080325276 0.042568665 -0.03227095 0.07021601 -0.026980396
0.018543838 -0.11393273 0.013413334 -0.08720334 -0.064548805 -0.047256827 0.07523776 0.003526959
0.042968437 -0.13774808 -0.014216666 0.061841417 -0.121559724 0.05214624 0.024340076 0.13194543
0.021883218 -0.18844579 -0.030397048 -0.18318786 -0.044886757 -0.08516926 0.06440077 -0.17767666
0.06311134 -0.2234133 0.043160785 -0.1170358 0.04460712 -0.045524403 0.010310414 -0.06999541
0.016715243 -0.24245249 -0.07294747 -0.08642146 0.13072717 0.05714935 -0.026296 -0.05415601
0.07706944 0.2455539 -0.020510115 -0.18430814 -0.06289821 -0.16565287 0.012457117 -0.16041523
0.078181505 0.18239483 -0.06301724 -0.11851089 -0.09586205 -0.0894048 0.026172284 -0.07961854
-0.026487766 0.12273658 -0.021913312 -0.05053603 -0.09156175 -0.17367813 -0.036304835 -0.09536453
-0.008483069 0.3202946 -0.023902915 0.035838287 0.015449951 -0.17102104 -0.027776927 -0.013662061
0.03621194 0.20681342 -0.032234896 0.04259494 0.09077016 -0.19757296 -0.05911035 -0.022963746
-0.033437423 0.18405375 0.050481442 -0.15861112 -0.011695831 -0.14891651 -0.02031827 -0.11884054
0.13622142 -0.024424214 -0.021339042 -0.0974528 0.16341184 -0.02886473 -0.04913733 -0.004636918
0.12860835 -0.0020693308 -0.01588096 0.12915105 0.092500545 0.03150741 -0.046601076 0.047084823
0.041566417 0.103410356 -0.053123813 0.13485056 0.1239426 0.054621972 -0.06882445 0.1496678
0.056238297 -0.09812522 -0.1028332 -0.18812712 -0.19898807 -0.029524356 -0.034676623 -0.21155103
0.0033648273 -0.0981212 -0.017707841 -0.14371645 -0.138061 0.048346665 0.04406358 -0.24212492
0.019309992 -0.16103323 -0.07480141 -0.16613737 -0.13960505 0.020628184 0.03178706 -0.19788241
0.04505625 0.07824377 -0.031917907 0.20017573 -0.076472946 0.043126438 0.015830252 0.13451383
0.027850742 0.03131162 0.015779441 0.04802356 0.013679064 0.07644119 -0.0066549224 0.07071892
0.1218102 0.02778296 0.12069705 0.09208042 0.041666076 0.040583674 0.026603516 0.11306011
0.037380446 -0.07050781 -0.053419862 -0.16299163 -0.021913437 0.005308174 -0.025939113 -0.1656947
0.03685583 -0.11432891 -0.003164269 0.040255267 0.016796403 0.031911742 0.031177657 -0.025032664
0.058703158 -0.061689127 0.036108863 0.090908654 0.01761645 0.15144996 -0.04792973 0.07827914
-0.06425622 -0.11744424 -0.0095334295 -0.0742805 -0.008298888 -0.01489094 0.0572024 -0.100333795
0.025330383 -0.11340342 -0.010553117 -0.02428695 0.012392099 0.041306764 -0.0777429 0.01618647
0.032100618 -0.02417038 0.01803229 -0.023417627 -0.07757436 0.004655968 0.060448825 -0.08961224
0.0026149862 0.112456426 -0.0304607 -0.041891064 -0.062316865 0.022101428 0.029041052 0.07840691
-0.034107655 0.030017206 -0.07453676 0.07942261 -0.019055605 -0.03291522 -0.02043683 0.017389568
-0.005179043 0.08940027 -0.031028692 0.019491663 0.1356004 -0.02085393 0.031227618 -0.034162313
-0.03109207 -0.14117016 -0.011856307 -0.16661014 -0.046699375 0.05725219 0.005312747 -0.16807778
0.04345462 -0.105239235 -0.008935576 -0.1859548 -0.053052638 -0.052487988 -0.02935439 -0.19004716

fc1.bias f4 [256]
00000000: 715a 3dbc 83b2 f3bc 5449 d0bd 2f42 3bbe
00000010: 9b4e c0bd 74a5 13bd 3dd8 00be e862 f73d
00000020: 7177 4cba 9df5 a9bd fc48 dbbd 8a22 e33c
00000030: a4ac 163e 9bf7 313e 9c18 06be 6016 7bbc
00000040: a6dd 37bd 8b7c 71bd fec3 2cbe 4c34 cb3d
00000050: a1e1 f33d 084a c1bd dbd1 cf3c a54f bbbc
00000060: 7da4 7d3d e409 abbd 0f97 903d fd1b a43b
00000070: f440 0dbe 7997 ddbd a914 19be 91a4 8a3d
00000080: 7d73 5b3e 61fc 633e b5ad ce3d e8e2 1cbe
00000090: 9bd6 a8bd 31c3 433d dea9 26be 9952 bebc
000000a0: 15c2 733d ecb9 4bbd f4c5 afbc 16bd 06bc
000000b0: 2aca f2bd d0b6 2bbd 2389 ff3b fc34 00be
000000c0: 5456 eb3d 5957 883d b224 b03c 8bdc d7bd
000000d0: 7b1e b43d 77b1 e9bb 02be f4bd 31ce 25bc
000000e0: 7962 debc 5ab1 1e3d f34b e93c 5a59 16bc
000000f0: 04e5 343d 37de 71bc 75b7 513c 5560 463d
00000100: 2c07 ab3d f2c8 02bd 2f8f e1bd 2b42 e43c
00000110: f394 23be 90b9 36bc 599b 373e 0568 ebbd
00000120: 5753 2dbc 7b93 2b3e 2102 613d 44b9 ad3d
00000130: 04e4 56bd 4b71 f83b c58b 3dbd 4477 d9bd
00000140: e27e 7d3c 4610 1c3e 910c ed3d a097 8cbd
00000150: c3e9 e93d ca06 ecbd 5a7b 50be 7b39 c83c
00000160: 6264 093e 1f33 0b3e b985 b5bd c3b1 c2bb
00000170: 7770 173e 33d0 b23d fdf4 553d 8ce4 cabc
00000180: 72f4 673d 8db3 4e3d fe6d c33d 4789 a03d
00000190: 44b6 c9bd 0dff 22be 5d4f 3f3e 96d3 d03d
000001a0: cc75 7fb9 13d7 693d d2a7 eabd 3fc9 97bd
000001b0: 6314 9c3d 555c 1c3c d166 18be 20e6 9bbd
000001c0: fd60 1fbd fd68 d7bc d180 02be 42a7 8bbd
000001d0: 287d a0bd 96a1 793d 7d6c 31be 36cd 39bd
000001e0: e9a6 c9bd 6595 c7bc 4847 26be 6401 01be
000001f0: b02a 8dbd 19d2 033e 911e 7dbd 7d7f 253e
00000200: 785b 0a3e edf9 683d 498a 01bd ce04 edbd
00000210: ed51 f7bd 9e4f edbd d7df 1f3d 5e36 373e
00000220: 2a25 99bd b86e a3bd d8b8 9b3d 06df 1abe
00000230: 7f37 dfbb d29b cdbd eba3 00be 8a6a 1cbd
00000240: 1cb4 f73c 5b22 703d d2f4 653d d96d 993d
00000250: 1817 883d 5e4a 313d 1542 bcbc 2901 45bd
00000260: 7539 a7bb 00de 973d 1738 793d 1dd9 3ebe
00000270: ba54 b2bd 6493 8e3d 3b3f 613d a744 923c
00000280: ce83 46bd 6363 483d 4529 a7bd 0134 a0bc
00000290: 8bff 2cbe 1601 88bc 18f2 fdbd 9f80 083e
000002a0: bba3 e13b 5b5e e1bc 085a 963d 3f97 d5bc
000002b0: 9b6c 7d3b 6e98 703c e45f 183d 0e07 81bd
000002c0: 0754 543d 8db4 eabd 907c 9c3d 461b bbbb
000002d0: 1323 efbc 1de7 3c3d f336 59bd 195e 7bbd
000002e0: 7bfa a1bd c7be 3cbd 8df3 c03d 7346 f33d
000002f0: f55d a6bd 3eb8 043d 5b59 c33d fec3 ac3d
00000300: 8319 1d3d ff65 123e cd33 6ebd 8634 d93d
00000310: baed 02be cdec c4bd 4123 3ebc 003f b6bd
00000320: 97a6 d13d efd4 5e3d de9a 903d bd5c 00be
00000330: 2d37 c339 a44f fb3d 0944 883c ce7d f2bd
00000340: 251a edbc 2250 e03d 1edd f1bd 35c0 14be
00000350: e725 e33d bd0f 203e 6dd2 513c b93f fb3d
00000360: b307 19be ebbe 9a3d e3d1 0cbe 2f63 14bd
00000370: 4015 093e cbb5 14bd d519 a7bd 82a3 813d
00000380: c8f0 233e 46a2 94bd dd67 3cbe 4fd1 5d3d
00000390: 1b81 263e 5d1e 2dbe 8043 0e3c 07d0 b33d
000003a0: a075 b63d 79e4 c1bd 1789 10bc 917b a13c
000003b0: 4559 32bd fab5 0b3e 25d0 8d3d d947 30bd
000003c0: f85e dd3d 4ffb 12be db2d 4ebc cf56 0abd
000003d0: dfe1 12be e518 7a3d 17b7 92bd c00e 32be
000003e0: f928 d93c 1792 e83d 4780 1ebe 8edf 5dbd
000003f0: 8554 ccbd 1cf9 afbd f954 303d efe9 43be
-0.011557207 -0.029748207 -0.10170236 -0.18286966 -0.09389993 -0.03604646 -0.12582488 0.12079412
-0.00077997806 -0.082988 -0.1070728 0.02772643 0.14714295 0.1737961 -0.13095325 -0.015325159
-0.044889115 -0.058956664 -0.1687164 0.09922084 0.1190827 -0.094379485 0.025368622 -0.022865126
0.061924446 -0.08351496 0.07060062 0.0050082193 -0.13794309 -0.10819907 -0.14949287 0.0676967
0.21430774 0.22264244 0.10091726 -0.15320933 -0.08244058 0.04779357 -0.16275737 -0.023232745
0.059511263 -0.049737856 -0.021456696 -0.008223793 -0.11854966 -0.04192239 0.0077983304 -0.12520212
0.11491075 0.06657285 0.021501873 -0.10540112 0.08794876 -0.007131751 -0.119503036 -0.010119961
-0.027146565 0.038743354 0.028478598 -0.0091765765 0.04416372 -0.014762453 0.012800087 0.048431713
0.08350977 -0.031929918 -0.11013638 0.027863583 -0.15974788 -0.01115264 0.17930354 -0.114944495
-0.010578952 0.16755478 0.05493367 0.08482602 -0.052463546 0.007581865 -0.046275873 -0.10618451
0.015472146 0.15240583 0.115746625 -0.06864858 0.1142154 -0.115247324 -0.20359555 0.024441471
0.13417199 0.1359372 -0.08863396 -0.005941601 0.14788996 0.08731117 0.052235592 -0.024767183
0.056629606 0.0504642 0.09542464 0.078386836 -0.098492175 -0.15917607 0.18682618 0.10196607
-0.00024362578 0.057089876 -0.114577904 -0.074114315 0.07621076 0.009543498 -0.14882971 -0.07612252
-0.038910855 -0.02629518 -0.12744452 -0.06819011 -0.07836372 0.060945116 -0.17326541 -0.04536172
-0.09846289 -0.024363229 -0.16238129 -0.12598187 -0.068929076 0.12873115 -0.06179673 0.16161914
0.13511455 0.056878973 -0.03162602 -0.11573182 -0.12076173 -0.115874514 0.03903183 0.17891833
-0.074777916 -0.07980102 0.076036155 -0.15124139 -0.0068120356 -0.10039486 -0.1256253 -0.03818754
0.03023725 0.058626514 0.056141682 0.07491655 0.0664503 0.043283813 -0.02298073 -0.04809681
-0.005103285 0.0741539 0.060844507 -0.1863751 -0.087075666 0.06961706 0.054991942 0.017855002
-0.048465542 0.048922908 -0.081621684 -0.019556047 -0.16894357 -0.01660208 -0.12399691 0.13330315
0.0068859733 -0.027510813 0.07341391 -0.026073096 0.003866947 0.01468478 0.037200823 -0.06300174
0.051837947 -0.114602186 0.07640946 -0.0057100384 -0.02919153 0.046118844 -0.05303092 -0.061369035
-0.079091035 -0.046080377 0.094214536 0.118786715 -0.0812339 0.03240227 0.095385276 0.0843582
0.038354408 0.14296721 -0.05815487 0.10605721 -0.12785998 -0.09615479 -0.011605085 -0.08898735
0.102368526 0.054402288 0.070607886 -0.12535377 0.00037234408 0.122710496 0.016634004 -0.118404016
-0.02894313 0.10952784 -0.11809753 -0.14526446 0.11091214 0.15631004 0.012806517 0.122680135
-0.14944343 0.07555946 -0.1375194 -0.0362274 0.13387012 -0.036306184 -0.08159224 0.06330015
0.1600982 -0.07257514 -0.18398996 0.05415469 0.16260187 -0.16906114 0.008683085 0.087799124
0.08909154 -0.09467406 -0.008821747 0.019712241 -0.043542165 0.13643637 0.06924466 -0.04303727
0.108091295 -0.14353679 -0.012584175 -0.033774193 -0.14343975 0.061058898 -0.07163828 -0.17388439
0.026508795 0.113559894 -0.15478621 -0.054168276 -0.09977058 -0.08592436 0.043049786 -0.19132207

fc2.weight f4 [128, 256]
00000000: 923e b5bd e4ab 0abe 45c6 293e 8701 8e3c
00000010: 9dad 983c a7f2 473d c71a bd3d 2ca5 20be
00000020: eef8 a1bd 6c56 edbc 1a7f 6d3c 9d75 46bc
00000030: 983f babd 88ef b0bd 372d 053e a9ad 8fbd
00000040: 09d8 613b e03f b0bd 8e7f 893c 9395 87bd
00000050: 2f01 c7bd 62cb b23b 24cb 91bd 16c2 743c
00000060: 6150 20be fa48 ccbc cd47 ce3c d9f9 5b3d
00000070: 9f30 5e3c 6e1a 383d 35ac c2bc 7d08 613d
00000080: 70f4 273e d9f6 ff3c 73ed 16be b847 cbbc
00000090: 6f62 a9bc df44 d8bc cb62 4d3d 8393 05bd
000000a0: c168 1abc b49c 043e 1e6a a1bd 28e1 b6be
000000b0: e6fa 3dbd 6521 e63d 7e56 8f3c 2ff3 2e3d
000000c0: 993a 08bf 61f1 473e 6770 9e3e bda4 0fbe
000000d0: aa99 693c 9ae8 51bc 1a51 113c 9ae5 2b3b
000000e0: 9d41 9dbd 4f2a e03a 3c2a aebc ee33 55bd
000000f0: 46c3 fc39 87fa b8bd eb0a 60b9 7c41 10bc
00000100: 6006 b03d 3a01 373d 4cd5 d1bd 8a83 63bd
00000110: b6fd fdbc 3fa1 453d 1620 6cbd 557c 43be
00000120: e54b 41be 3051 e93d 1812 8b3d 592c 083d
00000130: b7d7 0cbc d146 1b3c 1c07 8a3c 2386 1c3d
00000140: 4d1a 2abd e8b0 1cbd bcc5 003e b2c0 353c
00000150: 8a49 073d 1da2 6c3d 4a25 303e 297e 963d
00000160: 1620 23be 26b1 b0bd 76cd c23c 6bc2 bdbc
00000170: bc60 fcbd 588d 5bbd d3f2 93bd 5749 94bd
00000180: a6c1 dd3b 30bc 3a3d f9a7 283c 0717 bd3d
00000190: 9968 e23d 506d 83bd 158f 93bc f8cd 893c
000001a0: af58 b8bd fe74 2a3e ec15 2bbd 0e38 e53d
000001b0: 59c1 0c3d 775f 54be 129f 46bd 76bd ff3d
000001c0: e408 70bd 086c 77be dd53 13bd 5916 dbbc
000001d0: b040 103e 1d13 b43c 6b54 1fbc 7995 a5bd
000001e0: 39e0 32bd 614c 9a3c 3a33 d4bd 65ed 91bb
000001f0: 7021 9d3d 2455 55bd a3f6 acbd 00b8 93bc
00000200: bd13 80bd 2545 943d a5e3 0d3d cca0 f9bc
00000210: b370 183c bb81 c7bd 56ad d43d c4c6 b6bd
00000220: ae29 673c 8bd7 cabd 448e d73d 615f 823d
00000230: 333b 26bd a442 99bc f089 41bd ec6d a4bd
00000240: f341 4bbd 05f1 23bd 1adc 893d ab3c 91bd
00000250: 482e 903d 936a b6bd 9909 4f3d 74ca 8ebd
00000260: 7fcd 90bc b785 21bd 7f11 eabd 1556 9e3d
00000270: bcf5 253d cfeb 6d3d e082 f0bb be65 583d
00000280: c74d b7bd bb07 273d cdfd ad3d 34c4 91be
00000290: 4eb8 aa3d 21bc 363c c8f9 e43c 9275 443d
000002a0: 3433 20bd 1cca ab3d 54c7 cbbd 8959 cebc
000002b0: 961e 13be 936d 41bd 9d45 833c d103 10bd
000002c0: ecff 56bd 5c0b 35bd 76c7 df3d f748 673d
000002d0: a59c acbc 5ed0 1e3e 2397 c7bc 2af3 253d
000002e0: 4194 dabc 016c 4b3d e7b0 b23d fe46 16bd
000002f0: 987d 89bd 468f 053d 1469 cd3d 199f 28bd
00000300: 6cee 84bd 7183 d4bd 2a4c 2abc bbe8 afbd
00000310: 27d8 e73d b8ad 933d 4cea b93c e044 b6be
00000320: aaeb 00bd 0624 c2bd 63a0 17bd 96ce f73d
00000330: bb40 713d fc8a aebe c0f2 b03b 1788 c5bd
00000340: 458d 27ba db95 0c3d 61a9 d5bc e278 233d
00000350: 6053 95bd 9850 a33d 00fe 463d a211 193c
00000360: 7a5d c63d 2b73 9e3b 9b25 f73c d7df d7bd
00000370: b147 d53d d0b2 2bbe db45 95bd 89f9 60bd
00000380: 5804 873d 9f94 e8bd 4722 cc3d 5ddb dfbd
00000390: cca0 273d 7af5 b4bd 41f3 213d 5b11 7fbd
000003a0: e34c b7bd c8dc 7c3d 2bdb 40bd 4d78 02bd
000003b0: 60d4 cfbc ee6f 743d 088c 38bc ff36 c03d
000003c0: 9a8d eb3c fac5 1dbe f938 5e3e b2f7 e53c
000003d0: 45cd 03be 7751 89be d131 443d 9c72 8f3d
000003e0: 0e9a f33c 8fac 373d 5ef3 aabc e363 9cbc
000003f0: 16ce 3dbc 9bc7 043d 2dec 5dbe 78ae b33d
-0.08849825 -0.13542134 0.1657954 0.017334713 0.018637473 0.048815396 0.09233623 -0.15688008
-0.07908808 -0.028971873 0.014495635 -0.012113002 -0.09094161 -0.08639437 0.1300553 -0.07015545
0.0034461042 -0.08605933 0.016784456 -0.06620326 -0.09717023 0.005456374 -0.07118824 0.014938852
-0.15655662 -0.024937142 0.025180722 0.05370507 0.013561397 0.04494708 -0.023763755 0.054939736
0.1640184 0.031245636 -0.14739017 -0.024814472 -0.02067682 -0.026400028 0.050143044 -0.03261138
-0.009424389 0.12950402 -0.07881568 -0.35718656 -0.046381854 0.11236838 0.017497297 0.042712387
-0.5321441 0.19525672 0.3094513 -0.14027686 0.014257828 -0.012811804 0.008869434 0.0026229382
-0.0767853 0.0017102453 -0.021260373 -0.052051477 0.00048210676 -0.09032159 -0.00021366372 -0.008804675
0.08594966 0.044678904 -0.10245761 -0.055545367 -0.031004768 0.04824948 -0.057647787 -0.19090398
-0.18876608 0.113924384 0.067905605 0.03324542 -0.008596352 0.009477333 0.016849093 0.03821386
-0.04152899 -0.03825465 0.1257543 0.011093305 0.033029117 0.05777179 0.17201725 0.07348282
-0.15930209 -0.086275384 0.023779612 -0.023163995 -0.12323138 -0.053601593 -0.072240494 -0.07240551
0.0067674695 0.045589626 0.010293954 0.09232908 0.11055107 -0.06417334 -0.018012563 0.016821846
-0.0900129 0.16646191 -0.041768953 0.11192332 0.03436408 -0.20739542 -0.048491545 0.12487309
-0.05860223 -0.24162304 -0.03596865 -0.026744055 0.14087176 0.02198177 -0.009724717 -0.0808515
-0.043670867 0.018835248 -0.10361333 -0.0044533485 0.07672393 -0.05208315 -0.0844548 -0.018032074
-0.06253765 0.07239751 0.034640927 -0.030472182 0.009304213 -0.09741541 0.10384624 -0.0892463
0.014109058 -0.09904393 0.10525182 0.06365848 -0.0405838 -0.018708535 -0.047250688 -0.080287784
-0.04962344 -0.040024776 0.06731434 -0.070916496 0.070400774 -0.08907046 0.050546262 -0.069722086
-0.017676113 -0.03943416 -0.11429118 0.077312626 0.040517554 0.058086213 -0.0073398203 0.052831404
-0.08950382 0.040778857 0.08495674 -0.28470004 0.083359346 0.011153252 0.027951136 0.047963686
-0.03911133 0.08388159 -0.09950128 -0.025189178 -0.14367136 -0.04722364 0.016024405 -0.03515989
-0.05249016 -0.044200286 0.10926716 0.05646607 -0.021070788 0.15509173 -0.02436406 0.040515102
-0.026682021 0.049663547 0.08725148 -0.036688797 -0.06713408 0.03260734 0.10029808 -0.041167352
-0.06490788 -0.10376633 -0.0103941355 -0.08589312 0.11320525 0.072108686 0.02269473 -0.35599422
-0.031474747 -0.09479527 -0.03701819 0.1209995 0.058899622 -0.34090412 0.005400032 -0.09645098
-0.0006391595 0.0343226 -0.026081743 0.039910205 -0.07291293 0.079743564 0.048582077 0.009342583
0.09685798 0.0048355064 0.030169299 -0.10540741 0.10414065 -0.1676743 -0.072887145 -0.054925475
0.065926254 -0.11356472 0.099674754 -0.10930512 0.040924832 -0.088358834 0.039538626 -0.06227241
-0.08950212 0.06173399 -0.047084015 -0.03185301 -0.025369823 0.059677057 -0.011263855 0.0938549
0.028754044 -0.15407553 0.21701421 0.028072212 -0.12871273 -0.26819965 0.04789907 0.07004282
0.029736545 0.0448423 -0.020868 -0.019090598 -0.011584779 0.03241692 -0.21672125 0.08773512

fc2.bias f4 [128]
00000000: cc3c 843c 45ec 3ebd 9bd6 3cbb f7a2 533c
00000010: 724a c6bd 5898 dfbc 10b7 90bd 86bb 693b
00000020: 2558 7ebb dfc1 7f3b 7413 0cbd 8192 883c
00000030: 49b3 83bd 7866 123d 1bd1 1f3d bc1b 76bd
00000040: ba56 d1bb bbcd dbbc 6623 593d a561 89bc
00000050: 214c 5fbb 7000 a6bc 9962 373c a06d 43ba
00000060: 804a 703a a407 48bc 9647 f43c 330c dcbc
00000070: 6cc9 39bd 33f5 31bd 3f25 febd 859c b63c
00000080: 05fe 8cbb 8daf 613d 94ce 5d3d f2fa aebd
00000090: 29a9 c2bd cc86 1abb 8657 81bc 4c13 313d
000000a0: d898 c4bb 1112 34bc aebb d33d 0489 8dbd
000000b0: 01e7 613d 945f aebd f82b 3b3c 2984 21bd
000000c0: e450 f4bc bc70 c9bd be8c dc3c 7f84 933d
000000d0: ea0f a7ba 40ae 3ebd cfde 03be 592e c2bc
000000e0: e4f1 9dbd 8120 533d f8b1 dd3c 2a1f a43d
000000f0: 5111 6b3c 7b74 023e e956 0dbd 65a2 5a3d
00000100: d770 5abd 158f 4cbc f74b 103d 18ff 15bc
00000110: e1cc 6a3d e196 163d 83c7 c63d f791 073d
00000120: 0a44 303c 4784 2d3c 27e9 3ebd fe42 68bc
00000130: 3b12 003d cc3c efbc 1638 2abd 64d3 da3d
00000140: 5847 683c ab2f 313d 39e9 2bbd 81d1 38bd
00000150: f39c dcbc 0600 89bd 2b89 41bd 83c3 673d
00000160: 934b 6b3d 9704 9a3d c2fb 7dbd b761 213a
00000170: 7335 7ebc 0cbb f53c da5e d7bc 959c 8d3c
00000180: d9fc 2dbd eaac 74bc 6fc8 d53d 0a39 403c
00000190: 7406 d7bc 2f33 723d 2eee babc 184c 7c3d
000001a0: 62e5 48bd d771 4bbc a23b 203d f73c fbbc
000001b0: 435f 8b3c f218 91bd c14e a53c 69bc b6bd
000001c0: 15ff 05bd e735 0ebd 3355 ae3d 81a5 9bba
000001d0: f905 86bd 27d4 143d 0eeb 56bc c33c 803b
000001e0: c89e f5bc 894c d33c 6748 8ebd e1d8 33bc
000001f0: 5616 893d acec 42bb 3814 acb6 300b c4bc
0.016142271 -0.046612043 -0.0028814438 0.012917272 -0.09682168 -0.027294323 -0.070661664 0.0035664751
-0.0038809862 0.0039025468 -0.03419824 0.016671421 -0.0643068 0.035742253 0.039017778 -0.060085043
-0.0063885124 -0.026831498 0.053012274 -0.016770193 -0.0034072476 -0.02026388 0.011192941 -0.0007454995
0.0009166375 -0.012208853 0.029819291 -0.026861286 -0.045358106 -0.04344673 -0.12409448 0.022291431
-0.0043027424 0.05509906 0.054152086 -0.08543958 -0.09504921 -0.002357888 -0.015788805 0.043231294
-0.0059996657 -0.0109906355 0.103385314 -0.06910899 0.055151943 -0.08514324 0.011424057 -0.03943268
-0.029823728 -0.098359555 0.02692258 0.07203006 -0.0012745832 -0.046552896 -0.12877963 -0.02370374
-0.077121526 0.05154467 0.027062401 0.080137566 0.01434739 0.12739746 -0.034506712 0.053377528
-0.05333027 -0.012485285 0.035228696 -0.009155057 0.057324294 0.036764983 0.097060226 0.033098187
0.010758409 0.010590619 -0.04660907 -0.014176128 0.031267386 -0.029203795 -0.041557394 0.10684851
0.014177166 0.04325835 -0.041970465 -0.045121673 -0.026930308 -0.066894576 -0.047249954 0.05658294
0.05744512 0.07520407 -0.062007673 0.0006156223 -0.015515673 0.029996417 -0.026290346 0.017286578
-0.042477462 -0.014933804 0.1043862 0.011732349 -0.026248194 0.059130844 -0.022818651 0.061596006
-0.04904688 -0.012417278 0.03911937 -0.030668719 0.017013198 -0.07084836 0.020179154 -0.08922655
-0.03271397 -0.034719374 0.08512344 -0.0011874886 -0.06544108 0.036335137 -0.013117565 0.0039134934
-0.02998294 0.02579333 -0.069474034 -0.010977001 0.06693713 -0.0029743118 -5.128353e-06 -0.023931116

fc3.weight f4 [2, 128]
00000000: 00ab c6bd be1d 273e 2240 d53d 3324 9d3d
00000010: 6ffe acbd 72cc 433d 68ac e3ba 7eb0 26bc
00000020: 060b edbd a268 d43c 5b8a 02be c2b4 51bc
00000030: 016a 37be 222f 34bd ef89 edbc adea 32be
00000040: 9080 783c aa7e 5d3d 59cc 8d3c 2886 293e
00000050: fbe8 e8bd f0c1 5abd a75a e6bb 99ca 59bd
00000060: 96ec 84bc 5b9d 1abe 57ea f0bd a95b 4fbe
00000070: 7d92 30be 0943 2dbe d50c d73d 7f63 1a3c
00000080: 3aa0 ba3c e9a9 b83c 7374 1b3d 3ebe 16be
00000090: 256e e6bd e3cd 753e 8e11 383e 3f32 cd3b
000000a0: 2224 d93d 33aa 44be bc28 a6bd 29d6 ebbd
000000b0: bf7c 9ebd fb02 e7bd 6f02 26bc 080c a0bd
000000c0: 7eca 3abe ff59 2e3e d44e efbd d7de 023e
000000d0: eac3 5abd 3904 07be 2bed a2bd 3f21 7fbe
000000e0: ab16 14be 2302 323d b652 753d d80c 2dbd
000000f0: e9d4 21be d71c a7bd 9dc2 94bd deba fbbc
00000100: e326 2fbd 6e1c a63d fa1a 023e c9b6 f53d
00000110: 77d6 c43d e3eb 07be aa87 a9bc 33e0 8fbe
00000120: 8fe1 c83c 3574 e7bc 983c d1bd 0b02 73bd
00000130: 137b 1a3b 3958 2e3e 32ce de3a 907b ea3b
00000140: 74d3 9f3d b844 a8be 9331 adbd c62c 03bd
00000150: 5a1a 7bba 63aa b9bd 8490 9e3d 1d4d 7b3d
00000160: 1685 09be b5f0 123e dcb1 273b f1b9 cdbd
00000170: e8a3 1e3d d102 82bd 9fdd 74bd 2424 ae3d
00000180: 128b 4bbd a4f6 943d ef00 4cbd 1c5a 5d3d
00000190: db80 c23d afe0 5b3d d9f8 2338 9568 9f3d
000001a0: 10b9 f03d 79ed 27be 4f38 41be 7cd0 62be
000001b0: 38c4 0ebd 7e39 48be 0245 1fbe 55fc a1bd
000001c0: 23b6 9c3d 6aa8 023e bc09 073e e017 313e
000001d0: 88f1 063d 19e0 a23c ecbd 18be 3635 0d3d
000001e0: 6add 773d 5577 7cbb 2bb6 603e 5111 833a
000001f0: cfc5 243e f5a6 37be a912 f4bd 9fe2 9bbd
00000200: af4b 013e 18ef 153e f381 5d3e 6145 0c3d
00000210: 6515 e73e 5631 f63d 60e5 e7bc 1874 683e
00000220: ccff 493e 72cb ccbd f5a2 28bd b51e d63e
00000230: 305c 22be 3c49 1cbe 42d8 c0be 0dae 81bd
00000240: 8cb9 9abe 1016 b2bd f665 67bd 487e f3bd
00000250: b5d2 0cbe 66fa 9b3e 55d6 3a3e af26 4e3e
00000260: 1f72 83bd fa63 cb3d 8e3e 57be bc18 35bc
00000270: b59e 45be 5fea e6bd 347d 0e3e 2fbe 8bbd
00000280: 6ffd 16bd dffd 16bd c2a1 2d3e 995a fb3c
00000290: 4d14 883e 0cf7 41be ba16 3e3d adfe 0ebd
000002a0: cdd6 823d 47c6 b53e 61f2 003d 2d29 943e
000002b0: fd48 15bd b5a8 7cbd 4f85 65bd c37b e9bd
000002c0: 9a5b abbd aa75 413e e73e d83d 1001 cd3d
000002d0: 2650 103e 2bbd 4fbd e973 a43e c76e 36bb
000002e0: fbe4 913d ffcd 43bd e922 bd3e 10d4 25bd
000002f0: 9446 f3bd 5941 513e 1794 3f3d 7c0f 82bd
00000300: cf13 50be d44b 773e f7d1 213e dbbf 053e
00000310: fee7 e4bd 82bf 163d 38b2 a03e 03cd 213e
00000320: 4350 a03e c2e2 15be cfe6 3f3e e1fb c73e
00000330: 9573 fbbc 00c5 213d 12ba 8cbc 677a 403e
00000340: 6214 0ebd 37f2 85bd a233 563c cd58 65be
00000350: 90ba 4cbd f657 b93e a7aa 8f3e f8ab 46bd
00000360: ff78 33be a5ef ab3e 81a6 89bc 48f4 603e
00000370: a885 a0bd 0ba6 e7bd 36a9 023e 32c5 58bd
00000380: 7f37 543e 39d3 a53e 03a1 9fbd c565 783e
00000390: b4e9 65be 570c bb3d ff96 cebc 0590 a3bd
000003a0: a466 a03d af7e bc3d 6cd2 1dbd ced3 543e
000003b0: 1fb7 cbbd 37ad a5bd 69c9 7dbc 8c03 393e
000003c0: b61f a2bd d2e9 773d 39cd 46bd 59cd 4e3e
000003d0: a9e8 93bd da53 c2bd 1733 473d 8bee 9ebc
000003e0: 1ea2 8f3e ddf6 e33e d93b 903d 35e4 d3bc
000003f0: 577f f7bd 87f0 8abc 1eba 8cba c286 7e3d
-0.097005844 0.1631994 0.10412623 0.0767292 -0.08446967 0.047802396 -0.0017370107 -0.010173915
-0.11574368 0.025928799 -0.12748091 -0.012799444 -0.17911531 -0.04399026 -0.028996436 -0.17472334
0.01516737 0.054075874 0.017309355 0.16555083 -0.113725625 -0.05340761 -0.0070298496 -0.053171728
-0.016226094 -0.15099089 -0.11763447 -0.2024981 -0.17243381 -0.16920103 0.105004944 0.009423136
0.02278148 0.022541957 0.03795285 -0.14721009 -0.11251477 0.24004321 0.17975447 0.0062620933
0.10602595 -0.19205551 -0.08113238 -0.11515457 -0.07738637 -0.11279865 -0.010132416 -0.07814795
-0.18241307 0.17026518 -0.11684957 0.12780319 -0.053409494 -0.13185205 -0.079553925 -0.24915026
-0.14461772 0.04345907 0.059893332 -0.042248577 -0.15803875 -0.08159798 -0.07263682 -0.030728754
-0.042761695 0.08110891 0.12705603 0.11997754 0.096112184 -0.13273577 -0.020694572 -0.28100738
0.024521617 -0.028253654 -0.102166355 -0.05932812 0.0023571893 0.17025842 0.0016998707 0.007155843
0.07804003 -0.32864928 -0.08456721 -0.03202512 -0.0009578817 -0.09065702 0.07742408 0.061352838
-0.13429675 0.14349635 0.002558819 -0.10045231 0.038730532 -0.063481934 -0.059781667 0.08502987
-0.049693175 0.072736055 -0.049805578 0.054041013 0.094972335 0.05368107 3.9093986e-05 0.07783619
0.11754048 -0.16399182 -0.18869136 -0.22149843 -0.034855098 -0.19553182 -0.15553668 -0.07909457
0.07651927 0.12759557 0.13187307 0.17294264 0.032945186 0.019882249 -0.149162 0.034474574
0.06051389 -0.0038523276 0.21944492 0.0009999668 0.16091083 -0.17934783 -0.11917622 -0.07611584
0.12626527 0.14641988 0.21631603 0.034245852 0.4513351 0.12021129 -0.028307617 0.22700536
0.19726485 -0.099997416 -0.041171033 0.41820303 -0.15855479 -0.15262312 -0.37664992 -0.06332026
-0.30219686 -0.08695614 -0.056493722 -0.118893206 -0.13752253 0.30464476 0.18245824 0.20131944
-0.06418251 0.099311784 -0.21019956 -0.01105326 -0.19298823 -0.112751715 0.13914949 -0.06823384
-0.036862787 -0.036863204 0.16956237 0.030682849 0.26577988 -0.18941897 0.046408392 -0.034910847
0.06388626 0.35502836 0.03148115 0.28937665 -0.03644656 -0.06168433 -0.056035336 -0.11400559
-0.08367081 0.18892542 0.10558873 0.10009968 0.14093074 -0.050717514 0.32119682 -0.0027837025
0.07123753 -0.047803875 0.36940697 -0.04048544 -0.11878696 0.20435084 0.04677209 -0.0635061
-0.20320056 0.2415002 0.15802751 0.13061468 -0.111770615 0.03680373 0.3138597 0.15800862
0.31311235 -0.14637282 0.1874039 0.39059356 -0.030694762 0.039494514 -0.017178569 0.18796693
-0.034687407 -0.065403394 0.013073834 -0.22397156 -0.049982607 0.3619992 0.28059885 -0.048503846
-0.17526625 0.33581272 -0.016803028 0.21968186 -0.07837993 -0.11310967 0.12759861 -0.052922435
0.20724295 0.32387713 -0.077943824 0.24257572 -0.22452432 0.09133213 -0.025218485 -0.07986454
0.07832077 0.092038505 -0.038530752 0.20783922 -0.09947037 -0.08089679 -0.015489914 0.1806776
-0.07916205 0.060525723 -0.04853556 0.20195521 -0.07222111 -0.0948865 0.048632707 -0.019400856
0.28053373 0.4452428 0.07042665 -0.025865654 -0.12084835 -0.016960396 -0.001073662 0.062140234

fc3.bias f4 [2]
00000000: 589d bd3d e6a5 d8bd
0.092585266 -0.105785176
