critic0.pth (torch_old, 184232 bytes, 5 tensors)

fcs1.weight f4 [256, 48]
-0.018517084 -0.014046939 0.026584676 0.009428889 0.11624402 0.08271128 0.029454408 0.071201004
-0.048136964 -0.011135292 0.007460524 -0.092632085 0.023596784 -0.046968836 -0.0007484753 0.013957102
-0.0461737 -0.031802744 0.023106704 -0.11484903 -0.007864376 -0.31517965 0.008010705 -0.06710012
-0.069588274 0.024515653 -0.020464212 0.0438901 -0.052500445 0.097431615 0.029845914 0.021456512
0.03555608 0.11472502 0.00627087 0.057286136 -0.055957407 0.030737054 -0.008162511 -0.036809996
-0.007346184 0.092953615 0.04114116 -0.04123717 -0.023745118 -0.33712083 0.016909061 -0.013756495
0.0046764635 -0.010504939 0.011871738 -0.018368013 0.042466573 0.14093521 -0.0027490116 0.01597339
0.0027401375 -0.0117108105 -0.011133995 0.012015793 -0.005353059 0.073335856 0.040160142 -0.07202245
-0.026696103 -0.07580221 -0.014781212 -0.037046283 0.06307023 -0.23648064 0.014826036 0.029689057
-0.015701273 0.07638003 -0.038346775 0.01574755 0.014492505 0.1376788 0.01917898 -0.051443327
0.04246133 0.03876723 0.0044416795 -0.018638063 0.012924181 0.09536736 0.0041856035 0.023777716
-0.053388983 0.0606078 0.0054099625 -0.034698803 -0.11177274 -0.20323958 -0.0044772616 0.024803435
0.082924746 -0.097171344 -0.011193089 -0.06722068 0.01685458 -0.01701303 -0.030487405 -0.013121887
0.06079736 -0.088289484 -0.023860218 -0.061610173 0.0064541907 0.018968899 0.011862613 0.00064527686
0.06724201 -0.09374669 -0.05311891 -0.07147464 -0.06616474 -0.027947355 0.042859767 -0.05430613
-0.052290395 -0.066535324 -0.0070886826 -0.019876625 -0.00042489904 -0.009643389 0.0036837724 -0.040296633
-0.025076691 -0.094961755 -0.051400237 0.039595336 0.009818518 0.010508161 0.028664779 0.049439825
0.0792632 -0.011208372 0.00663944 0.17220414 -0.0013602702 -0.01794988 0.002475967 0.13898948
0.037627112 -0.09196101 0.022535315 -0.0072888313 0.09584005 -0.0008532397 -0.011773831 0.022776317
0.050310127 -0.09005304 -0.017135648 -0.05180447 0.031077052 0.12863515 0.023968238 0.053945515
0.0063785785 -0.10775701 0.034924142 0.022934092 0.015707871 0.08961041 -0.032524485 0.03757874
0.1338419 0.12336141 -0.03779231 -0.10728739 0.0064354665 -0.0070561436 -0.04980182 -0.04858204
0.09279041 0.049628545 -0.002549325 -0.016658409 0.0061905873 0.054876763 -0.03669179 -0.03751807
-0.022148611 -0.03126399 0.050121754 -0.02690613 -0.117638595 0.10487062 0.01880215 -0.030491127
-0.0019924804 -0.1152955 -0.03038762 0.03580949 -0.032355983 0.004732057 0.02173263 -0.04184046
0.059950665 -0.11966629 0.013079731 -0.025178311 0.0011432184 -0.0370755 0.036823563 -0.0352505
-0.012899974 -0.10655201 0.000115207695 -0.026023123 0.07277943 -0.02056608 -0.006981298 0.041600116
0.07530535 -0.015198644 -0.011989204 0.18850437 0.057051692 -0.054357294 -0.0014688199 0.12167991
0.043157153 0.013557113 -0.024170686 0.024855945 -0.0434893 -0.058651302 -0.032004397 0.03327777
0.15093407 0.09480732 0.046849493 0.08732068 -0.07473558 -0.017502744 0.024389734 0.07490266
0.06007237 0.12821297 0.020066757 -0.04835216 0.09662486 -0.13556847 -0.0340413 -0.008360744
0.0013108922 0.08700837 -0.054074585 -0.12983274 -0.037302066 -0.031064449 -0.039168708 -0.03300077
00000000: 24b1 97bc 2225 66bc 1bc8 d93c a07b 1a3c
00000010: 5811 ee3d 8864 a93d 5f4a f13c d5d1 913d
00000020: 442b 45bd cd70 36bc 6977 f43b e4b5 bdbd
00000030: 0b4e c13c 6562 40bd 5435 44ba 54ac 643c
00000040: a220 3dbd 9843 02bd 454a bd3c f835 ebbd
00000050: 95d9 00bc 3a5f a1be 553f 033c ca6b 89bd
00000060: 4c84 8ebd 0dd5 c83c 90a4 a7bc 1bc6 333d
00000070: b50a 57bd 3a8a c73d 6b7f f43c 91c5 af3c
00000080: 41a3 113d f4f4 ea3d df7b cd3b dea4 6a3d
00000090: 9833 65bd 46cc fb3c 0dbc 05bc 14c6 16bd
000000a0: 42b8 f0bb 775e be3d a283 283d 4fe8 28bd
000000b0: 1f85 c2bc 1a9b acbe df84 8a3c ec62 61bc
000000c0: 053d 993b e81c 2cbc ae81 423c 8478 96bc
000000d0: 6ef1 2d3d 5251 103e c328 34bb a0da 823c
000000e0: e193 333b b3de 3fbc 5c6b 36bc e3dd 443c
000000f0: b768 afbb 1c31 963d f67e 243d 8280 93bd
00000100: c9b1 dabc 303e 9bbd e62c 72bc d8bd 17bd
00000110: f72a 813d fb27 72be e7e8 723c 7736 f33c
00000120: f59f 80bc 226d 9c3d 8211 1dbd 0201 813c
00000130: f971 6d3c acfb 0c3e 3c1d 9d3c 3db6 52bd
00000140: eeeb 2d3d 63ca 1e3d 828b 913b daae 98bc
00000150: f2bf 533c f64f c33d 6327 893b 7cc9 c23c
00000160: 68ae 5abd e23f 783d 0e46 b13b 5520 0ebd
00000170: 1be9 e4bd 091e 50be feb5 92bb 9330 cb3c
00000180: 73d4 a93d c501 c7bd 3863 37bc ffaa 89bd
00000190: 9e12 8a3c e95e 8bbc b9c0 f9bc 2ffd 56bc
000001a0: a706 793d 1ed1 b4bd 8176 c3bc f35a 7cbd
000001b0: ad7d d33b aa64 9b3c 685b 423c cc27 293a
000001c0: 2eb6 893d 44fe bfbd 3793 59bd 4c61 92bd
000001d0: 6181 87bd daf1 e4bc b98d 2f3d 1b70 5ebd
000001e0: 742e 56bd ac43 88bd 2e48 e8bb 4ed4 a2bc
000001f0: fcc4 deb9 4eff 1dbc 726b 713b 150e 25bd
00000200: a26d cdbc 4f7b c2bd 0e89 52bd b82e 223d
00000210: d9dd 203c 6c2a 2c3c 66d2 ea3c 6a81 4a3d
00000220: bf54 a23d 52a3 37bc a98f d93b 4856 303e
00000230: 184b b2ba a00b 93bc d543 223b 4253 0e3e
00000240: e31e 1a3d 0e56 bcbd fb9b b83c 26d7 eebb
00000250: ca47 c43d f2ab 5fba 07e7 40bc 6695 ba3c
00000260: fe11 4e3d ba6d b8bd 0f60 8cbc ed30 54bd
00000270: 4d95 fe3c efb8 033e 0a59 c43c f9f5 5c3d
00000280: 6503 d13b b5af dcbd 9e0c 0f3d 47e0 bb3c
00000290: cbad 803c aa85 b73d 6538 05bd 2aec 193d
000002a0: da0d 093e e8a4 fc3d 1ccc 1abd 7eb9 dbbd
000002b0: 9be0 d23b 3937 e7bb fefc 4bbd f6fd 46bd
000002c0: e608 be3d 4d47 4b3d 9412 27bb 3777 88bc
000002d0: 69da ca3b 75c6 603d 214a 16bd 8cac 19bd
000002e0: 0171 b5bc ab0e 00bd 784c 4d3d 3f6a dcbc
000002f0: 81ec f0bd 68c6 d63d f706 9a3c 87c8 f9bc
00000300: 4694 02bb 0c20 ecbd 75ef f8bc f9ac 123d
00000310: b587 04bd 5f0f 9b3b a108 b23c e760 2bbd
00000320: d48e 753d 9a13 f5bd 5e4c 563c bf42 cebc
00000330: 0bd8 953a 7bdc 17bd 4ed4 163d d462 10bd
00000340: 6a5a 53bc f137 dabd a99b f138 722e d5bc
00000350: 620d 953d 327a a8bc 5fc3 e4bb e264 2a3d
00000360: b139 9a3d bc03 79bc 5e6e 44bc 4a07 413e
00000370: 09af 693d c1a5 5ebd 6b85 c0ba 5133 f93d
00000380: 8ec5 303d a71e 5e3c 9a01 c6bc b29e cb3c
00000390: d621 32bd 593c 70bd 0b17 03bd 454e 083d
000003a0: 768e 1a3e 572a c23d 41e5 3f3d 2fd5 b23d
000003b0: f80e 99bd ea61 8fbc fbcc c73c 9166 993d
000003c0: 720e 763d 434a 033e 0a63 a43c ea0c 46bd
000003d0: 41e3 c53d 76d2 0abe e46e 0bbd 81fb 08bc
000003e0: 3ed2 ab3a 7231 b23d 507d 5dbd e0f2 04be
000003f0: 0dca 18bd df7a febc 5e6f 20bd d12b 07bd

fcs1.bias f4 [256]
0.12877123 0.13983493 -0.025796501 -0.08196108 -0.09700226 0.016468056 -0.012252828 0.33566186
-0.02247847 -0.05483305 0.009561273 0.0920229 0.13010223 0.120956294 -0.1495068 -0.16615477
-0.051472127 -0.104004726 -0.161951 0.13726982 0.15457635 -0.18250044 0.05586158 -0.06876728
0.13635905 -0.08171112 0.02216656 0.022847306 -0.10805843 -0.017920421 -0.13855284 0.16405678
0.16132307 -0.023247648 0.14221606 -0.27198803 -0.06551513 -0.012268886 -0.13370313 -0.07534348
0.02827525 -0.15166114 0.093366 0.09466451 -0.09249465 -0.01086679 0.08015551 -0.09084296
0.15512817 0.08079688 -0.12586977 -0.04358461 0.025149968 0.13657878 -0.10680133 0.032107867
0.11424325 0.07047871 0.0632201 0.02764484 0.0461385 -0.004087347 -0.10614822 -0.05846079
0.09554234 0.10590405 -0.10547409 0.015022744 -0.20250516 0.002566102 0.27774853 0.046062816
-0.012713614 0.091135286 0.053942617 0.08187573 -0.09605312 -0.12859514 -0.1019224 -0.13021827
0.05704513 0.18217616 0.35968477 -0.02374075 0.13168718 -0.10246191 -0.11976023 0.056076426
0.17077313 0.14626756 -0.14766577 -0.042137615 0.035553496 0.064282104 -0.0017007777 -0.12538736
0.0775779 0.068298444 0.07604206 0.079791546 -0.086475015 -0.16878802 0.14970636 -0.003359508
-0.050720245 0.0069061457 -0.035531912 -0.13371176 0.18260863 0.027786337 -0.18671988 -0.02607021
0.10803664 -0.11811434 -0.10394556 -0.10969166 -0.0025581834 0.115130045 -0.19055891 -0.12672184
-0.14741684 -0.16073604 -0.20566402 -0.05649719 -0.13616502 0.0041681672 -0.044611506 0.08966868
0.17293994 0.007671341 -0.006293747 -0.05728342 -0.14283961 -0.17850116 0.11578813 0.085576475
-0.10305666 -0.00027323645 0.031276863 -0.13816485 -0.04168566 -0.11427495 -0.08332096 -0.084789716
0.11211771 0.0064288727 0.08129076 0.13821045 0.014378011 0.053499486 0.13016756 -0.07049784
0.053251512 0.0065066544 -0.020054609 -0.16729966 -0.035903685 0.047961462 0.11235745 0.0659004
-0.073594645 0.024701793 -0.014280216 -0.02229685 -0.09060684 -0.12311748 -0.08289156 0.06974597
0.06453131 -0.09395488 0.12003321 -0.009741133 -0.017028244 0.062676474 -0.022851443 -0.14450489
0.06801205 -0.06980604 0.013053971 0.022986827 0.037239827 0.08571562 0.12325382 -0.0499887
-0.11196949 -0.22747137 0.08153465 0.06321032 -0.0026369966 0.009250364 -0.032857757 0.081892215
0.102573864 0.23710755 -4.431481e-05 0.0613458 -0.05552037 -0.07865959 0.01883722 -0.109704144
0.043635014 0.039649643 0.026097024 -0.2508745 0.024105303 0.22573313 0.052977026 -0.13577846
-0.066849306 0.11379889 -0.10019411 -0.14258172 0.07494951 0.12354463 -0.034419898 0.15096202
-0.17778957 0.15220559 -0.19929446 0.02353166 0.055444546 -0.09277878 -0.1671096 0.052123453
0.1795917 -0.008083387 -0.1826363 0.17059544 0.076476395 -0.11654321 -0.14337549 0.07299727
0.06668105 -0.1376817 0.032099877 0.13711996 -0.030460386 0.12353258 0.11509942 -0.0453027
0.25570992 -0.22815186 0.014838543 0.103688404 -0.20943537 0.0028524706 -0.0055242577 -0.16245441
-0.0054356675 0.28027958 -0.12638418 0.036531173 0.047890577 -0.056063846 0.09919025 -0.1289905
00000000: 9bdc 033e e330 0f3e 2f53 d3bc 36db a7bd
00000010: 1fa9 c6bd 04e8 863c 16c0 48bc dfdb ab3e
00000020: c524 b8bc 9f98 60bd e3a6 1c3c 8176 bc3d
00000030: 8539 053e efb7 f73d 5018 19be 7a24 2abe
00000040: 70d4 52bd 6e00 d5bd 7cd6 25be 7690 0c3e
00000050: 4349 1e3e 65e1 3abe 1dcf 643d dcd5 8cbd
00000060: b5a1 0b3e 2958 a7bd a596 b53c 462a bb3c
00000070: bd4d ddbd d9cd 92bc cce0 0dbe 80fe 273e
00000080: e031 253e da71 bebc 16a1 113e 0442 8bbe
00000090: cc2c 86bd 7003 49bc 79e9 08be af4d 9abd
000000a0: 7fa1 e73c 0f4d 1bbe ac36 bf3d 77df c13d
000000b0: d66d bdbd 9f0a 32bc 9228 a43d e00b babd
000000c0: ebd9 1e3e d678 a53d 01e4 00be c785 32bd
000000d0: 4e07 ce3c 4fdb 0b3e a8ba dabd 8a83 033d
000000e0: 5df8 e93d 2457 903d 8a79 813d 6e77 e23c
000000f0: b9fb 3c3d 27ef 85bb 3d64 d9bd 9574 6fbd
00000100: b4ab c33d 39e4 d83d cd02 d8bd f521 763c
00000110: 835d 4fbe 0c2c 283b 0e35 8e3e 5dac 3c3d
00000120: c34c 50bc 23a5 ba3d eff2 5c3d 76ae a73d
00000130: 80b7 c4bd 72ae 03be b1bc d0bd f057 05be
00000140: 27a8 693d 638c 3a3e 9a28 b83e f67b c2bc
00000150: 01d9 063e 8dd7 d1bd da44 f5bd 65b0 653d
00000160: 27df 2e3e 2ac7 153e b235 17be 7e98 2cbd
00000170: 8ba0 113d 56a6 833d a1ec deba 8b65 00be
00000180: 29e1 9e3d 0ee0 8b3d f1bb 9b3d c069 a33d
00000190: d019 b1bd c4d6 2cbe a04c 193e 312b 5cbb
000001a0: 08c0 4fbd f34c e23b e989 11bd bceb 08be
000001b0: c2fd 3a3e 2ca0 e33c 7f33 3fbe 3191 d5bc
000001c0: 5042 dd3d eee5 f1bd 69e1 d4bd 05a6 e0bd
000001d0: 32a7 27bb 4dc9 eb3d e021 43be 5fc3 01be
000001e0: 71f4 16be fd97 24be 9799 52be 9969 67bd
000001f0: d86e 0bbe 1f95 883b 8eba 36bd 37a4 b73d
00000200: 2b17 313e df5f fb3b c73b cebb 05a2 6abd
00000210: 8c44 12be 02c9 36be 5422 ed3d b842 af3d
00000220: 5f0f d3bd 2d41 8fb9 2b1c 003d 167b 0dbe
00000230: 95be 2abd fc08 eabd 2ea4 aabd 3ba6 adbd
00000240: f89d e53d 4ba9 d23b c57b a63d 0a87 0d3e
00000250: c091 6b3c 4722 5b3d a54a 053e 2c61 90bd
00000260: 421e 5a3d c635 d53b 9049 a4bc 9a50 2bbe
00000270: be0f 13bd 3d73 443d aa1b e63d caf6 863d
00000280: cab8 96bd 6a5b ca3c 91f7 69bc e2a7 b6bc
00000290: 1490 b9bd 0425 fcbd 0dc3 a9bd fad6 8e3d
000002a0: fe28 843d 6b6b c0bd f9d3 f53d 4699 1fbc
000002b0: d17e 8bbc 865c 803d f332 bbbc 17f9 13be
000002c0: e749 8b3d 78f6 8ebd 53e0 553c df4e bc3c
000002d0: ca88 183d ac8b af3d 806c fc3d f3c0 4cbd
000002e0: 4350 e5bd 41ee 68be a3fb a63d 6a74 813d
000002f0: 76d1 2cbb d78e 173c db95 06bd 1bb7 a73d
00000300: 3f12 d23d 52cc 723e aade 39b8 bc45 7b3d
00000310: 5469 63bd 4718 a1bd 8350 9a3c 91ac e0bd
00000320: a1ba 323d aa67 223d 6dc9 d53c 9f72 80be
00000330: 7c78 c53c 9626 673e 70fe 583d 8209 0bbe
00000340: 4ae8 88bd 640f e93d 9232 cdbd f100 12be
00000350: 217f 993d f804 fd3d e1fb 0cbd ca95 1a3e
00000360: 780e 36be c8db 1b3e d913 4cbe 78c5 c03c
00000370: d219 633d cd02 bebd c71e 2bbe 677f 553d
00000380: e3e6 373e 2f70 04bc 0305 3bbe 92b0 2e3e
00000390: a89f 9c3d 35ae eebd 06d1 12be 987f 953d
000003a0: 1390 883d 6efc 0cbe 297b 033d 2d69 0c3e
000003b0: 0f88 f9bc a6fe fc3d 3fb9 eb3d 538f 39bd
000003c0: 69ec 823e a4a0 69be 5c1d 733c 965a d43d
000003d0: 3a76 56be 84f0 3a3b d504 b5bb 735a 26be
000003e0: af1d b2bb ce80 8f3e db6a 01be b6a1 153d
000003f0: e928 443d 34a3 65bd 4224 cb3d 1616 04be

fc2.weight f4 [128, 258]
-0.048741233 -0.09934297 0.03311448 0.008669882 -0.121256605 -0.06327588 0.011985247 0.072040685
-0.11578845 0.002536632 0.06435723 -0.035344213 -0.06405208 0.084024675 0.05739585 -0.024081208
-0.10528415 0.111398645 0.007932423 -0.027163258 -0.10429093 0.06711483 -0.069800586 -0.0119725885
-0.1013958 0.02529954 -0.03981364 -0.039058242 0.043430034 -0.08960206 -0.054051317 0.0054951427
-0.052818555 -0.0643903 -0.10971921 -0.07806514 -0.16622253 0.086590104 -0.0073878 0.020761255
0.061816387 -0.033651806 0.015816653 -0.05847142 -0.16087344 0.014773701 -0.10383243 0.005408256
-0.040095 0.017338883 -0.042378616 0.038722716 -0.051357254 0.046912894 -0.008890495 0.04970621
0.04533441 -0.008569009 -0.031530194 0.011738684 -0.07957 -0.12818111 0.06588753 0.093575194
-0.032410994 -0.08776481 0.03729888 -0.07832085 -0.022377959 -0.04715951 -0.03491857 -0.069934495
-0.056380607 -0.10937425 -0.04756979 0.06692346 0.06312019 0.0071304278 -0.038320042 -0.031843916
0.06291117 -0.1358143 0.054070376 -0.09636983 -0.0076202634 -0.107909806 0.06855283 -0.010541106
-0.0058117793 0.04900018 0.017140437 0.046312712 -0.09683561 0.03849554 -0.09124767 -0.053505022
-0.056884184 0.028933357 -0.14173941 0.047999483 -0.049993742 0.003071067 -0.08503945 -0.07399689
0.0134547185 0.011350397 0.0577469 -0.06901607 -0.064038344 0.04124338 -0.016900087 -0.11156305
0.034934293 -0.0043871156 -0.030856816 0.031933952 -0.019463448 -0.075077854 -0.08330574 0.08010053
0.012130915 0.01690774 0.0059510404 -0.05020781 0.061376113 -0.026844464 0.055680104 -0.106621616
0.02213138 0.07909497 -0.025548363 0.006679964 -0.014025607 -0.021349091 0.06977753 -0.005052719
-0.037297357 -0.00044037023 -0.04247199 -0.07649721 -0.08022508 -0.10692826 0.062028762 -0.02340165
-0.12317949 0.07676154 0.0077378238 -0.056066174 -0.029044954 -0.05546338 -0.035799842 -0.051611874
-0.028183842 -0.036610473 -0.08976361 -0.043989833 0.011102884 0.070778936 -0.060378347 0.053382896
-0.061697718 -0.038199894 -0.08044724 0.0065525854 -0.113563955 0.06862922 0.011716776 -0.114110656
-0.0671697 -0.027397066 0.004372823 0.018170793 -0.049111847 -0.010604134 -0.13350983 -0.015383723
-0.08039521 -0.09455266 0.029432774 -0.0687404 -0.0069541372 -0.14481552 -0.10456615 -0.035690565
0.0014687752 0.099549964 -0.09784333 -0.1031431 -0.012223112 0.017210804 0.0061987513 0.036508568
0.07741386 -0.07108169 -0.028536076 -0.091732465 -0.020608613 -0.0024818606 -0.120443664 -0.03784931
0.050107926 0.04217643 0.033708617 -0.05121696 -0.0037088722 -0.0055298437 0.12641165 -0.12916777
-0.054654986 0.00172135 0.06282324 -0.032058816 -0.073615305 0.04170988 0.047499895 0.05107322
0.026478563 0.024607494 0.05641562 -0.082633816 -0.132268 -0.047342695 -0.0324863 -0.0478741
-0.06739181 -0.073745996 -0.01782587 -0.030156247 0.004171043 -0.0812755 -0.09049808 -0.032336682
0.036010478 -0.053431723 -0.018421916 0.025435682 -0.04628316 -0.03349097 -0.0618642 -0.038854767
0.07225107 0.04743507 -0.0829571 0.02389361 0.0032358975 -0.06337766 -0.043132205 0.030325124
-0.028903093 -0.07086784 -0.1275083 -0.06007617 -0.17587635 -0.041913196 0.060847223 0.04762658
00000000: e3a4 47bd 5474 cbbd 0da3 073d 1f0c 0e3c
00000010: 6255 f8bd c996 81bd c55d 443c 118a 933d
00000020: 7f22 edbd 9f3d 263b b9cd 833d 18c5 10bd
00000030: bd2d 83bd 2115 ac3d e917 6b3d f445 c5bc
00000040: 379f d7bd f924 e43d fef6 013c 7b85 debc
00000050: 7c96 d5bd 8073 893d 9cf3 8ebd ad28 44bc
00000060: 9aa8 cfbd fb40 cf3c a113 23bd 89fb 1fbd
00000070: b1e3 313d 4981 b7bd ea64 5dbd 9910 b43b
00000080: 4558 58bd 10df 83bd 77b4 e0bd 9ee0 9fbd
00000090: 3d36 2abe 2756 b13d 5c15 f2bb 8213 aa3c
000000a0: 2e33 7d3d 7ad6 09bd ed91 813c ba7f 6fbd
000000b0: 02bc 24be 650d 723c 19a6 d4bd bd37 b13b
000000c0: a83a 24bd 460a 8e3c 3395 2dbd b69b 1e3d
000000d0: fc5b 52bd bc27 403d 70a9 11bc bd98 4b3d
000000e0: 93b0 393d 0765 0cbc ce25 01bd 9c53 403c
000000f0: 99f5 a2bd e941 03be 0bf0 863d 5aa4 bf3d
00000100: 64c1 04bd 09be b3bd b6c6 183d af66 a0bd
00000110: fb51 b7bc 552a 41bd c606 0fbd d139 8fbd
00000120: 5aef 66bd 9bff dfbd 8ad8 42bd 2b0f 893d
00000130: 2845 813d 5da6 e93b 7af5 1cbd c46e 02bd
00000140: 92d7 803d e712 0bbe e678 5d3d 8c5d c5bd
00000150: 67b3 f9bb d1ff dcbd 6d65 8c3d 9ab4 2cbc
00000160: bd70 bebb 6ab4 483d 1a6a 8c3c 66b2 3d3d
00000170: c051 c6bd 80ad 1d3d 0fe0 babd 1528 5bbd
00000180: 64ff 68bd a605 ed3c 2324 11be 1b9b 443d
00000190: 3dc6 4cbd f443 493b 2a29 aebd ae8b 97bd
000001a0: 2e71 5c3c 04f7 393c 0388 6c3d 4c58 8dbd
000001b0: 8926 83bd d2ee 283d 0d72 8abc 2b7b e4bd
000001c0: 4317 0f3d cbc1 8fbb 6fc7 fcbc 2dcd 023d
000001d0: cf71 9fbc 6bc2 99bd 339c aabd bf0b a43d
000001e0: bfc0 463c 1a82 8a3c f200 c33b b4a6 4dbd
000001f0: 8565 7b3d ece8 dbbc d210 643d 6f5c dabd
00000200: de4c b53c 8bfc a13d cd4a d1bc 99e3 da3b
00000210: a9cb 65bc 4ae4 aebc 86e7 8e3d 4791 a5bb
00000220: 1dc5 18bd 7ee1 e6b9 1cf7 2dbd 92aa 9cbd
00000230: 0c4d a4bd 34fd dabd df11 7e3d d1b4 bfbc
00000240: 8745 fcbd 2735 9d3d 928d fd3b a5a5 65bd
00000250: afef edbc 922d 63bd dba2 12bd f966 53bd
00000260: cde1 e6bc ddf4 15bd fcd5 b7bd af2e 34bd
00000270: dfe8 353c 8cf4 903d 494f 77bd 06a8 5a3d
00000280: bfb6 7cbd 7e77 1cbd 86c1 a4bd 12b7 d63b
00000290: 3894 e8bd 7a8d 8c3d b8f7 3f3c d9b2 e9bd
000002a0: 4590 89bd d06f e0bc e649 8f3b eada 943c
000002b0: 8129 49bd f6bc 2dbc cdb6 08be 030c 7cbc
000002c0: 3ea6 a4bd d3a4 c1bd 001d f13c c4c7 8cbd
000002d0: 88df e3bb 854a 14be c726 d6bd 4530 12bd
000002e0: eb83 c03a dae0 cb3d 1562 c8bd b13c d3bd
000002f0: 7343 48bc acfd 8c3c e51e cb3b 028a 153d
00000300: 288b 9e3d 4793 91bd 7dc4 e9bc 3bde bbbd
00000310: 65d3 a8bc b6a6 22bb 2bab f6bd e107 1bbd
00000320: f83d 4d3d 31c1 2c3d 0c12 0a3d e0c8 51bd
00000330: 8d10 73bb b133 b5bb 0e72 013e 8e44 04be
00000340: e8dd 5fbd ec9e e13a 79a9 803d 1b50 03bd
00000350: 9fc3 96bd fbd7 2a3d 408f 423d 2732 513d
00000360: 92e9 d83c a895 c93c 1114 673d eb3b a9bd
00000370: 4371 07be 6aea 41bd 5b10 05bd a217 44bd
00000380: b804 8abd 2408 97bd 8f07 92bc 3c0a f7bc
00000390: 3fad 883b c573 a6bd 0f57 b9bd 7873 04bd
000003a0: b97f 133d 39db 5abd 8fe9 96bc 7e5e d03c
000003b0: 6993 3dbd d42d 09bd 5165 7dbd 2d26 1fbd
000003c0: 5ef8 933d 474b 423d 69e5 a9bd 88bc c33c
000003d0: 5a11 543b 26cc 81bd 65ab 30bd 656c f83c
000003e0: 2ec6 ecbc 2823 91bd 8991 02be 6e12 76bd
000003f0: ee18 34be 2cad 2bbd f03a 793d 1714 433d

fc2.bias f4 [128]
0.024653943 0.034116346 -0.059991382 0.031734426 -0.025650814 -0.07622369 -0.0404816 0.037616048
0.08008052 -0.04891576 -0.08339637 -0.04976559 -0.020973917 0.14028095 -0.03360433 -0.00024105846
0.014073968 -0.010234518 0.023908934 0.008349514 0.06538463 -0.016083194 -0.052602276 0.02597838
-0.042278454 -0.01250672 0.0033515443 0.058977563 -0.07001855 -0.015237428 0.050884783 -0.014417094
-0.051556345 -0.049657445 -0.07659626 -0.0065365797 -0.023987504 0.014772833 0.026835645 0.020919086
0.028616818 0.062065966 0.004570936 -0.01773837 -0.007776495 -0.04226159 -0.029832518 0.03117555
-0.07690049 0.043482717 0.04028137 0.008718033 0.020165127 -0.066233456 0.016583001 0.025791807
0.07399585 -0.06693026 0.08548328 -0.028042648 -0.0579215 0.1279315 0.012984289 0.050944306
0.02716649 -0.048880436 -0.023124218 0.05950201 -0.057196956 0.019025246 0.023356942 -0.022698447
0.015444473 -0.062346138 -0.04203224 0.0017913319 -0.05265928 0.06647665 0.06718483 -0.04286587
-0.009883822 0.21553905 -0.01016482 0.039106023 -0.079285875 0.07849284 0.01937142 -0.011612249
0.041291226 0.0025482841 -0.040467497 -0.0031240447 -0.017515263 0.04195548 0.026006866 -2.9280467e-05
-0.0037865415 -0.04221517 0.08158681 0.01233085 0.008403335 0.03978895 0.09437765 -0.020899
-0.01898916 0.08989517 -0.055356666 -0.059753887 -0.0035038742 0.0042589717 -0.024477452 -0.050602492
0.02357209 0.26421276 0.00412872 0.0114824185 0.069189645 -0.026663505 -0.051729165 -0.031507693
-0.031259213 0.07139042 -0.0694788 0.002983912 -0.047462028 -0.06138987 -0.073335096 -0.025712969
00000000: 11f7 c93c 95bd 0b3d 86b9 75bd f5fb 013d
00000010: a821 d2bc 2a1b 9cbd 09d0 25bd 4913 1a3d
00000020: 4101 a43d e45b 48bd b7cb aabd 01d7 4bbd
00000030: 7ed1 abbc cfa5 0f3e b2a4 09bd a3c4 7cb9
00000040: 8096 663c aeae 27bc abdc c33c 66cc 083c
00000050: 60e8 853d e7c0 83bc 7c75 57bd 9dd0 d43c
00000060: 2c2c 2dbd fce8 4cbc 95a5 5b3b 7592 713d
00000070: e365 8fbd 68a6 79bc 906c 503d ad35 6cbc
00000080: bf2c 53bd 9b65 4bbd 80de 9cbd ce30 d6bb
00000090: 7181 c4bc c109 723c 6dd6 db3c 815e ab3c
000000a0: d16d ea3c e238 7e3d cac7 953b 0f50 91bc
000000b0: f8d1 febb 7d1a 2dbd 5363 f4bc de63 ff3c
000000c0: 017e 9dbd ef1a 323d 14fe 243d 15d6 0e3c
000000d0: 5631 a53c 68a5 87bd 13d9 873c 5749 d33c
000000e0: 238b 973d bb12 89bd dc11 af3d b2b9 e5bc
000000f0: 183f 6dbd 7a00 033e 0ebc 543c faaa 503d
00000100: 428c de3c da36 48bd 006f bdbc 61b8 733d
00000110: 5b47 6abd d5da 9b3c 0f57 bf3c 18f2 b9bc
00000120: d10a 7d3c aa5e 7fbd 002a 2cbd 20cb ea3a
00000130: 42b1 57bd e924 883d 3398 893d 1f94 2fbd
00000140: c1ef 21bc 45b6 5c3e 588a 26bc a32d 203d
00000150: a260 a2bd dbc0 a03d d0b0 9e3c 4d41 3ebc
00000160: fd20 293d 1d01 273b 3fc1 25bd c6bc 4cbb
00000170: 2b7c 8fbc 82d9 2b3d 5a0c d53c 539f f5b7
00000180: a027 78bb d0e9 2cbd fc16 a73d 5507 4a3c
00000190: 24ae 093c bdf9 223d 1249 c13d 6134 abbc
000001a0: 288f 9bbc f51a b83d acbd 62bd 7ec0 74bd
000001b0: 41a1 65bb d88e 8b3b f084 c8bc 8f44 4fbd
000001c0: 411a c13c e546 873e 374a 873b c120 3c3c
000001d0: 4db3 8d3d 6c6d dabc f6e1 53bd 360e 01bd
000001e0: a909 00bd 2435 923d e74a 8ebd bc8d 433b
000001f0: 8b67 42bd f273 7bbd b630 96bd 01a4 d2bc

fc3.weight f4 [1, 128]
-0.011920328 0.010849986 -0.014587171 -0.012917564 -0.043183155 0.06113371 -0.062667005 0.083206415
-0.017788138 -0.032171898 0.04136918 0.019139163 0.033302855 -0.016025623 0.02439506 0.024779188
-0.07610752 -0.0063621914 -0.022421459 0.046957087 -0.023796353 0.030840598 0.03626954 -0.022624329
-0.040060427 -0.029518684 -0.053819694 -0.010370862 -0.026480023 0.029369427 0.042699322 -0.025152544
0.023006817 0.05412556 0.00948597 0.044442244 0.022531277 -0.056943916 -0.024080457 -0.016978538
0.008697386 0.010839041 -0.05031405 -0.012490667 0.0077214693 -0.04626792 -0.03677587 -0.009770273
0.015941534 -0.012205492 -0.042812843 -0.010341143 -0.019368209 0.008854964 -0.0046165306 -0.017470269
-0.02285013 -0.05349658 -0.0134107955 0.100393556 -0.035259396 -0.011532253 -0.017915403 -0.020295402
-0.014036116 0.03724774 -0.03590667 -0.030122109 0.045207586 0.02154876 0.010338715 -0.061497286
0.015599592 -0.0015606568 -0.0182772 -0.059773233 0.036969684 -0.03264342 -0.07023098 0.014307271
0.053949147 -0.017480887 -0.037245065 -0.021359246 0.0007216626 -0.014623922 -0.0094079 -0.017496163
-0.013746819 -0.02553393 0.025006916 -0.009303788 -0.009575409 -0.06381923 -0.04546383 0.054049794
0.04507854 0.024555298 -0.026655123 -0.051174786 0.026917893 -0.014269454 -0.053840004 0.011950283
-0.028178822 -0.010760077 -0.043331563 -0.051362526 0.06621936 0.03027363 0.022377413 0.0015268622
-0.03014838 -0.013095729 0.044513185 0.020760344 -0.010188875 -0.024625098 0.0237219 -0.042330198
0.01283521 -0.009957905 0.06035473 -0.024691325 -0.060821846 -0.030961098 -0.06848762 0.022960685
00000000: 7b4d 43bc 24c4 313c 08ff 6ebc 31a4 53bc
00000010: d2e0 30bd 5767 7a3d 8f57 80bd 2068 aa3d
00000020: 6eb8 91bc aec6 03bd bb72 293d bcc9 9c3c
00000030: 9368 083d 2b48 83bc 26d8 c73c b9fd ca3c
00000040: 42de 9bbd ee79 d0bb 35ad b7bc 1356 403d
00000050: 92f0 c2bc 6ca5 fc3c 5f8f 143d a856 b9bc
00000060: 6716 24bd 2bd1 f1bc 0a72 5cbd 8cea 29bc
00000070: a2ec d8bc 2798 f03c 7ce5 2e3d b50c cebc
00000080: cb78 bc3c c3b2 5d3d 0b6b 1b3c 1209 363d
00000090: 8393 b83c 063e 69bd 6144 c5bc 9316 8bbc
000000a0: 7b7f 0e3c 3c96 313c 1b16 4ebd a8a5 4cbc
000000b0: 6104 fd3b 6e83 3dbd 4ba2 16bd 7f13 20bc
000000c0: d297 823c 8bf9 47bc 855c 2fbd e66d 29bc
000000d0: 14aa 9ebc 6914 113c 4446 97bb cf1d 8fbc
000000e0: 3230 bbbc 3b1f 5bbd f4b8 5bbc 239b cd3d
000000f0: 286c 10bd c6f1 3cbc 53c3 92bc 8b42 a6bc
00000100: bdf7 65bc 1691 183d df12 13bd a4c2 f6bc
00000110: 972b 393d 0687 b03c b763 293c 94e4 7bbd
00000120: 6e95 7f3c f48e ccba 11ba 95bc c7d4 74bd
00000130: 866d 173d 1bb5 05bd 43d5 8fbd 0b69 6a3c
00000140: c8f9 5c3d 1434 8fbc 488e 18bd 96f9 aebc
00000150: f52d 3d3a 2d99 6fbc 9823 1abc 1d54 8fbc
00000160: 573a 61bc 882c d1bc 4edb cc3c ea6e 18bc
00000170: 2de2 1cbc a8b3 82bd 4838 3abd 5163 5d3d
00000180: 46a4 383d 3128 c93c d85b dabc a79c 51bd
00000190: ea82 dc3c 6eca 69bc 5687 5cbd 1fcb 433c
000001a0: 46d7 e6bc 094b 30bc 707c 31bd 8361 52bd
000001b0: 049e 873d 6700 f83c d650 b73c fe20 c83a
000001c0: bcf9 f6bc 788f 56bc 7553 363d 9911 aa3c
000001d0: 3def 26bc 93ba c9bc 6e54 c23c 6e62 2dbd
000001e0: c64a 523c 7b26 23bc 8536 773d 7645 cabc
000001f0: 5420 79bd 21a2 fdbc 3d43 8cbd 0c18 bc3c
