critic1.pth (torch_old, 184232 bytes, 5 tensors)

fcs1.weight f4 [256, 48]
-0.025474394 -0.15724711 0.004102018 0.012430446 -0.018630661 0.022732278 0.0069718775 0.07420223
-0.06265157 -0.11772056 0.013822804 -0.037596542 -0.03998564 -0.06478473 0.0056138393 0.068992116
-0.06504036 -0.12724237 0.030084463 0.08159812 0.06738523 -0.19509451 0.014988084 0.12934682
-0.033796392 0.07131826 -0.034249783 -0.06224368 0.0823738 0.03745257 0.01606044 -0.08467803
0.102064505 0.13714567 -0.0037916745 0.0134551255 0.007624359 0.012920667 -0.018224942 -0.080640905
0.042960174 0.14897937 0.0025565345 -0.06811942 -0.09899549 -0.21703522 -0.0216756 -0.04063763
-0.0180367 0.0054893973 0.001006021 0.031366035 0.0058028395 0.10768755 -0.013614956 0.0657068
-0.041472107 0.03316434 -0.011192897 0.05627428 -0.050073326 0.03469557 0.04010047 -0.027764311
-0.031020774 -0.08764581 -0.029753534 -0.028512284 -0.013797715 -0.14608166 -0.00014659038 0.038223684
0.00030078096 0.009864938 -0.02126949 0.008002151 0.05115626 0.104431435 0.036256414 -0.059188057
0.061651256 0.018475154 0.0070936373 -0.024309637 0.057644658 0.056726325 0.006837557 0.01810584
-0.046148617 0.072489165 0.022188878 -0.009004587 -0.0349036 -0.11283909 0.012301872 0.050497893
0.068866536 -0.05546646 -0.009367904 -0.011975147 0.08836924 -0.12079476 -0.028662248 0.04212362
-0.0018250125 -0.104426496 -0.018444248 -0.03135755 0.038951077 -0.003536013 0.017278474 0.03089981
-0.0372948 -0.047038853 -0.06102778 -0.020147465 -0.05920983 -0.010801704 0.034950975 -0.002978331
-0.014368529 -0.04993228 0.009940569 0.012111394 -0.07194037 -0.113425225 0.020713227 -0.008308356
-0.022009471 -0.16626808 -0.049739838 -0.09637883 -0.022677897 -0.011996692 0.030324848 -0.08653465
0.08292898 -0.2019001 0.010840121 0.029256716 -0.008315358 -0.0008043675 0.0066768145 -0.003958126
-0.0039445343 -0.033836864 0.008030796 0.014045422 0.059820917 -0.038747165 -0.026277998 0.044109974
0.05766538 0.06208319 -0.021503603 -0.0060324087 0.07950473 0.041067477 0.01960049 0.09971424
0.02914229 0.099295266 0.014643313 0.027225114 0.04629939 0.0614573 -0.05280576 0.041869678
0.09307409 0.013002058 -0.009022113 0.009721121 0.04245423 -0.0449502 -0.02103129 0.068427056
0.12003243 0.05169483 0.010928891 -0.015789742 -0.04223609 -0.032690804 -0.023213299 -0.03664929
0.040662497 0.019709267 0.045619063 -0.028715605 -0.14822882 0.07671735 0.014298747 -0.032300215
-0.0034590268 0.06267765 -0.018961832 0.05073515 -0.025162708 0.0016639344 0.033159025 -0.026915142
0.06840045 0.061479498 0.0065177726 -0.009663364 0.022120168 -0.12604219 0.030261952 -0.019736249
-0.018008925 0.006748432 0.0053068753 -0.04269011 0.13910612 -0.28193694 -0.0017895323 0.02493498
-0.03141416 0.10349859 0.019056669 0.123642035 0.0498579 -0.057424933 0.029577522 0.05681645
-0.03903392 0.09077914 0.006400632 -0.02570483 -0.064467125 -0.14761887 -0.0014331479 -0.01728284
0.022065016 0.17156631 0.013823842 0.045727663 -0.14106256 -0.2788736 -0.008634851 0.033308946
0.055224944 -0.07942255 0.013134453 0.09921312 0.049994934 -0.033416018 -0.04097358 0.1392048
0.006898656 -0.0556544 -0.00404868 0.00964104 -0.02793463 0.07857441 0.010857228 0.10647441
00000000: adaf d0bc 6305 21be 396a 863b 12a9 4b3c
00000010: 549f 98bc 0b39 ba3c 5974 e43b 57f7 973d
00000020: 774f 80bd 7a17 f1bd 0b79 623c d5fe 19bd
00000030: fcc7 23bd dbad 84bd 4cf4 b73b bd4b 8d3d
00000040: e133 85bd d34b 02be b173 f63c ea1c a73d
00000050: 4401 8a3d dbc6 47be 9590 753c 7e73 043e
00000060: 166e 0abd 4f0f 923d 8049 0cbd 3bf3 7ebd
00000070: 98b3 a83d de67 193d 2f91 833c ad6b adbd
00000080: 3207 d13d ea6f 0c3e be7d 78bb e372 5c3c
00000090: c2d5 f93b 35b1 533c 794c 95bc 0f27 a5bd
000000a0: 02f7 2f3d 0c8e 183e 888b 273b 3282 8bbd
000000b0: 26be cabd 7b3e 5ebe 0791 b1bc a573 26bd
000000c0: b4c1 93bc 67e0 b33b 77dc 833a ac79 003d
000000d0: bf25 be3b 4a8b dc3d 4411 5fbc 4991 863d
000000e0: a8de 29bd 55d7 073d 6a62 37bc dc7f 663d
000000f0: b019 4dbd f11c 0e3d 6440 243d fb71 e3bc
00000100: 471f febc a57f b3bd afbd f3bc 9892 e9bc
00000110: d00f 62bc 6e96 15be 0eb6 19b9 7090 1c3d
00000120: 23b2 9d39 8da0 213c 5a3d aebc 741b 033c
00000130: 3a89 513d 26e0 d53d 9b81 143d 2d6f 72bd
00000140: 0786 7c3d 3559 973c be71 e83b 0125 c7bc
00000150: ce1c 6c3d dd59 683d 960d e03b b352 943c
00000160: 5506 3dbd 3375 943d 73c5 b53c fa87 13bc
00000170: 14f7 0ebd 2e18 e7bd ca8d 493c e1d6 4e3d
00000180: e609 8d3d cc30 63bd d67b 19bc 6833 44bc
00000190: effa b43d 3e63 f7bd 17cd eabc d189 2c3d
000001a0: 4235 efba 8fdd d5bd 6418 97bc c670 00bd
000001b0: 2a8b 1f3d 74bc 67bb 968b 8d3c 9921 fd3c
000001c0: 6fc2 18bd d0ab 40bd 44f8 79bd 4c0c a5bc
000001d0: 0286 72bd a1f9 30bc c128 0f3d 1a30 43bb
000001e0: fb69 6bbc ca85 4cbd c5dd 223c de6e 463c
000001f0: 7955 93bd 7c4b e8bd c9ae a93c c51f 08bc
00000200: 354d b4bc 2e42 2abe 00bc 4bbd 4462 c5bd
00000210: ffc6 b9bc c68d 44bc d16b f83c 1439 b1bd
00000220: abd6 a93d e6be 4ebe c39a 313c c8ab ef3c
00000230: 243d 08bc 30dc 52ba 2ec9 da3b 2bb3 81bb
00000240: 2741 81bb 8698 0abd 9a93 033c c51e 663c
00000250: c706 753d 59b5 1ebd f544 d7bc a9ac 343d
00000260: 8932 6c3d f14a 7e3d 5328 b0bc 83ab c5bb
00000270: 60d3 a23d 5f36 283d 3591 a03c fb36 cc3d
00000280: d0bb ee3c 515b cb3d 82ea 6f3c 3407 df3c
00000290: 6ea4 3d3d a6ba 7b3d da4a 58bd 8a7f 2b3d
000002a0: a19d be3d 9506 553c 7cd1 13bc 5645 1f3c
000002b0: 7de4 2d3d b31d 38bd d049 acbc 7c23 8c3d
000002c0: 90d3 f53d f5bd 533d 170f 333c 7d59 81bc
000002d0: c0ff 2cbd cbe6 05bd d129 bebc 911d 16bd
000002e0: b88d 263d 5475 a13c 0edb 3a3d fd3c ebbc
000002f0: 4cc9 17be fc1d 9d3d 4b45 6a3c 3b4d 04bd
00000300: d7b0 62bb 245d 803d d855 9bbc a9cf 4f3d
00000310: 0622 cebc 6018 da3a c2d1 073d 257d dcbc
00000320: 8915 8c3d edd1 7b3d 0a93 d53b 1653 1ebc
00000330: 5b35 b53c 3411 01be eae7 f73c eaad a1bc
00000340: 7487 93bc f321 dd3b 4ce5 ad3b d3db 2ebd
00000350: d671 0e3e 0a5a 90be bd8e eaba 7144 cc3c
00000360: 22ac 00bd 12f7 d33d bb1c 9c3c 0938 fd3d
00000370: cc37 4c3d 6836 6bbd 8f4c f23c 5eb8 683d
00000380: 08e2 1fbd 6aea b93d 65bc d13b f092 d2bc
00000390: 5707 84bd 6729 17be 77d8 bbba be94 8dbc
000003a0: b1c1 b43c 14af 2f3e 657d 623c ee4c 3b3d
000003b0: b472 10be 85c8 8ebe 3179 0dbc f66e 083d
000003c0: 8d33 623d 4aa8 a2bd e431 573c 4030 cb3d
000003d0: 7dc7 4c3d 3cdf 08bd ead3 27bd b48b 0e3e
000003e0: 1f0e e23b def5 63bd caaa 84bb 74f5 1d3c
000003f0: 2ad7 e4bc 9feb a03d 84e2 313c 410f da3d

fcs1.bias f4 [256]
-0.007280417 0.0030314734 0.0001044301 -0.18882062 -0.08336641 -0.039054476 -0.08605037 0.2382925
-0.101481155 -0.100311615 -0.055729065 0.09851598 0.15240204 0.14830539 -0.14599821 -0.021417553
-0.046777274 -0.08400899 -0.13544767 0.09691746 0.14933324 -0.15016718 0.007038651 -0.05934196
0.11071305 0.015679646 0.051855315 0.013737442 -0.06465617 -0.23954794 -0.15831564 0.14360254
0.15196903 0.1578244 0.047975216 -0.1427071 -0.100515425 0.011700354 -0.11454049 -0.03294875
-0.0028803342 -0.12719905 0.035632655 0.023950256 -0.039159425 -0.00653349 0.0071630552 -0.101312816
0.05317945 0.17859155 -0.07468995 -0.12234618 -0.035729837 0.003836274 -0.08069226 0.058736764
-0.062593356 0.07766482 0.12518126 0.0004904059 0.07545703 0.014431276 -0.032070093 0.04890423
0.058055803 -0.030316446 -0.069829434 0.088211775 -0.16948935 0.12749206 0.12877484 -0.10373812
-0.05490861 0.10405363 0.09000042 0.06406146 -0.11264085 -0.032924045 -0.109583534 0.042308718
0.042466898 0.13377793 0.019020118 -0.07681333 0.183924 -0.091659084 -0.15119237 0.05749277
0.15263407 0.05629654 -0.19082306 -0.016305177 0.14051338 0.040745076 0.031485688 -0.12754227
0.054859504 0.1476519 0.055711955 0.05385338 -0.0429914 -0.17358889 0.09150716 0.028614989
0.02410474 -0.010334104 -0.09077241 -0.09479857 0.05038087 -0.037325673 -0.19419919 -0.03762372
0.028756635 -0.10895362 -0.104052365 -0.0835394 -0.07559835 0.07438958 -0.11932775 -0.1036348
-0.1301682 -0.026573982 -0.14154282 -0.0628609 -0.11646957 0.07154911 -0.1416543 0.17813993
0.08967826 -0.0042528296 -0.0032929552 -0.14781833 -0.0535819 -0.13734464 0.0011013304 0.106932394
-0.04357371 -0.08333631 0.0378761 -0.1668252 -0.0776707 -0.13299944 -0.07292067 -0.035566606
0.083201945 0.06417779 -0.008276244 0.10852954 0.054391824 -0.028232148 0.07941749 0.008863212
0.07245196 0.11379077 0.0386978 -0.12418974 -0.04347627 0.061819915 0.092606656 0.12344539
-0.019186808 0.09117493 0.020340938 -0.07413031 -0.12014086 0.039031792 -0.073279925 0.1046702
-0.036224168 0.02229494 0.14015219 0.047624312 0.01652287 0.05674994 0.037498754 0.029108629
0.054384228 -0.06287205 0.10214526 -0.059867386 -0.058505375 0.052427866 0.025907658 -0.10993568
-0.066023216 -0.14933185 0.17239572 0.03915529 0.00073279813 0.09543766 0.16633129 0.10365394
0.03318112 0.025966527 -0.08008726 -0.051006548 -0.104412824 -0.10551928 -0.08779125 -0.13453338
0.0072093764 0.023854567 -0.0038977326 -0.13370982 0.09272748 0.15545371 0.05794234 -0.17415604
0.07521205 0.07779584 -0.08457333 -0.11579664 0.082921125 0.059073977 0.07334522 0.04916335
-0.09060871 0.11712657 -0.12113417 -0.02492 0.13425499 -0.12056597 -0.12416307 0.0069127386
0.11697743 -0.0440117 -0.1345577 0.10066041 0.1783746 -0.14719926 -0.06793808 0.10633922
0.008127079 -0.11243362 -0.06636097 -0.011856447 -0.018229146 0.124915734 0.06259402 -3.5946814e-05
0.030814506 -0.11803911 0.024732985 0.058022227 -0.13073987 -0.034392618 -0.108571745 -0.07859654
-0.0057682716 0.058004096 -0.14298727 -0.056909196 -0.08511806 -0.09600298 0.03238646 -0.1623873
00000000: 9090 eebb afab 463b 7c01 db38 315a 41be
00000010: 02bc aabd 96f7 1fbd 2d3b b0bd f302 743e
00000020: 5ad5 cfbd 2d70 cdbd 2944 64bd bfc2 c93d
00000030: 480f 1c3e 5edd 173e 8e80 15be dd73 afbc
00000040: 8799 3fbd e80c acbd cbb2 0abe a97c c63d
00000050: d0ea 183e 6dc5 19be 7ca4 e63b 8e10 73bd
00000060: 86bd e23d 9a72 803c 3d66 543d 0213 613c
00000070: 746a 84bd 0e4c 75be 7f1d 22be 8b0c 133e
00000080: c59d 1b3e b89c 213e a981 443d cf21 12be
00000090: 08db cdbd d7b2 3f3c 3494 eabd 45f5 06bd
000000a0: fdc3 3cbb 7840 02be 8cf3 113d 5433 c43c
000000b0: a265 20bd e316 d6bb 10b8 ea3b 187d cfbd
000000c0: b2d2 593d b4e0 363e 0bf7 98bd a290 fabd
000000d0: 7359 12bd ff69 7b3b fc41 a5bd f695 703d
000000e0: f230 80bd bc0e 9f3d 842f 003e 958e 003a
000000f0: 3789 9a3d 2971 6c3c ee5b 03bd cd4f 483d
00000100: eccb 6d3d 325a f8bc bc02 8fbd 60a8 b43d
00000110: 9e8e 2dbe 478d 023e 8ddd 033e a774 d4bd
00000120: dae7 60bd 121a d53d 2452 b83d a832 833d
00000130: 3fb0 e6bd 5ddb 06bd 556d e0bd e84b 2d3d
00000140: c5f1 2d3d 15fd 083e 14d0 9b3c 4f50 9dbd
00000150: 9356 3c3e c2b7 bbbd 2cd2 1abe 8a7d 6b3d
00000160: 1b4c 1c3e 3397 663d 1f67 43be 6f92 85bc
00000170: bde2 0f3e 4fe4 263d 23f7 003d 719a 02be
00000180: 5cb4 603d 0f32 173e 3832 643d 5d95 5c3d
00000190: c017 30bd 49c1 31be 1b68 bb3d fb69 ea3c
000001a0: 4e77 c53c 6050 29bc e3e6 b9bd c125 c2bd
000001b0: 2c5c 4e3d cee2 18bd 27dc 46be 541b 1abd
000001c0: 0993 eb3c 1323 dfbd 6819 d5bd b416 abbd
000001d0: 4fd3 9abd 9059 983d 1b62 f4bd 7b3e d4bd
000001e0: d04a 05be aeb1 d9bc 9af0 10be 37bd 80bd
000001f0: 9987 eebd 5788 923d d30d 11be 506a 363e
00000200: 3ca9 b73d 525b 8bbb 9fce 57bb b05d 17be
00000210: b278 5bbd 13a4 0cbe 845a 903a 5fff da3d
00000220: 597a 32bd 3aac aabd f823 1b3d 3ad4 2abe
00000230: d111 9fbd 0131 08be 6f57 95bd 4aae 11bd
00000240: c865 aa3d a56f 833d 1599 07bc bc44 de3d
00000250: f6c9 5e3d 1b47 e7bc a3a5 a23d 0137 113c
00000260: b161 943d 230b e93d 9681 1e3d 3157 febd
00000270: 2c14 32bd e136 7d3d 8fa8 bd3d f0d0 fc3d
00000280: a72d 9dbc ecb9 ba3d 0aa2 a63c a2d1 97bd
00000290: 690c f6bd cddf 1f3d c913 96bd 545d d63d
000002a0: cb5f 14bd e1a3 b63c 0e84 0f3e b611 433d
000002b0: f85a 873c a072 683d 4b98 193d 3875 ee3c
000002c0: ffc1 5e3d 10c3 80bd 8931 d13d 8137 75bd
000002d0: 55a3 6fbd 9abe 563d 4c3c d43c f525 e1bd
000002e0: 2e37 87bd 73ea 18be 8188 303e 4c61 203d
000002f0: 4019 403a d274 c33d c052 2a3e 8448 d43d
00000300: ede8 073d c1b7 d43c ca04 a4bd 3eec 50bd
00000310: 64d6 d5bd 7e1a d8bd e6cb b3bd 1ec3 09be
00000320: a23c ec3b a76a c33c 1a71 7fbb 3aeb 08be
00000330: e8e7 bd3d 422f 1f3e f254 6d3d f655 32be
00000340: c608 9a3d 6d53 9f3d c834 adbd ca26 edbd
00000350: 8dd2 a93d 8ef7 713d 0536 963d 825f 493d
00000360: 0f91 b9bd 0ee0 ef3d 3115 f8bd 0725 ccbc
00000370: 247a 093e 4beb f6bd 3549 febd 4184 e23b
00000380: dd91 ef3d 9d45 34bd 7ec9 09be 0c27 ce3d
00000390: d5a7 363e 67bb 16be 1f23 8bbd 61c8 d93d
000003a0: 7127 053c 9943 e6bd 43e8 87bd 8b41 42bc
000003b0: 4a55 95bc d2d3 ff3d 4b31 803d 99c5 16b8
000003c0: b46e fc3c 7dbe f1bd d49c ca3c b7a8 6d3d
000003d0: ace0 05be 46df 0cbd dd5a debd 39f7 a0bd
000003e0: c503 bdbb b495 6d3d 416b 12be 9e19 69bd
000003f0: 6152 aebd 369d c4bd aaa7 043d db48 26be

fc2.weight f4 [128, 258]
0.10005132 -0.108966865 0.021958422 0.015437551 -0.19100954 -0.023535477 -0.007813004 0.21693163
-0.11970245 0.0879121 0.037434828 0.08570089 -0.015374364 0.009160098 0.06439842 0.110425286
-0.09049118 0.046699774 -0.098451234 0.010705877 -0.02779676 0.056815315 -0.09832208 -0.02041544
-0.09629861 -0.008242135 -0.030982211 -0.06051915 0.053638756 0.002453218 -0.010355588 -0.031991806
0.008738684 -0.0014684472 -0.039046165 -0.05734429 -0.100264326 0.05612851 -0.015035399 0.09089591
0.07618748 -0.11391404 0.01166038 -0.012510571 -0.00078478275 0.037354033 -0.06659232 0.026476
-0.03617695 0.08300144 -0.03491027 -0.013722452 -0.01690161 0.019556945 0.024634283 0.068094805
0.016403383 -0.028118193 -0.02752407 0.07248771 -0.010194845 -0.030794527 -0.043361127 0.027131632
-0.01707068 -0.13033159 0.031129615 -0.11811532 0.035229113 0.03326696 0.08357162 -0.00515337
-0.1810475 -0.03645319 -0.025126306 -0.014342916 -0.017286753 0.030338535 0.028670268 -0.1924604
-0.053802565 0.030406583 0.071015745 -0.08319775 0.004729453 -0.019622141 0.10494766 -0.056375958
-0.06562142 -0.19459723 -0.121774375 0.073050566 -0.12949081 0.055240225 0.0335585 0.010531534
-0.045723956 0.029354768 0.051295124 0.06930236 -0.008403413 -0.03449686 0.010103882 0.013450158
-0.025555938 -0.053266525 0.05868822 -0.17098883 -0.0065190573 0.0049435855 0.013652662 -0.0065264357
0.05828887 0.0071767173 -0.04750635 -0.008003542 -0.0014687674 -0.04518664 -0.058541376 0.11396497
0.07694114 0.013997265 -0.014857414 -0.0699114 0.07453184 -0.024254328 0.109962285 0.009453452
-0.1597374 0.04099379 -0.08588955 0.09696297 0.03247054 0.014273477 0.07751653 0.034589235
-0.19964784 0.015213191 -0.12196518 -0.025979355 -0.112495966 -0.01932628 -0.013354737 -0.032579474
-0.076342136 0.056779534 0.026044568 -0.015500954 0.037501484 0.0043182503 -0.12204725 0.0011985671
0.03288572 0.014324695 -0.29925933 -0.08804195 0.044453498 -0.02827959 0.08832578 -0.005261042
-0.09656911 0.0154257035 0.08434651 -0.015228825 -0.028726311 0.027524507 -0.07968773 -0.094383046
-0.014145671 -0.07214004 0.054675236 0.015040443 -0.041885924 -0.0034502943 0.044330444 -0.06761052
-0.06910762 0.02186144 0.02250706 -0.15613697 0.005606991 -0.1405371 -0.0894751 -0.05745797
0.02171339 0.045179382 -0.02359116 -0.0502396 0.03279656 0.06873084 0.033107087 0.014072077
-0.058999225 -0.03736647 -0.027591651 -0.15690121 -0.030183831 -0.011518489 -0.17979832 0.08371639
0.057355072 -0.002126966 0.010427436 0.0069598057 -0.03717234 -0.004904165 0.073740825 -0.04047099
-0.0010816964 0.10996448 0.06436443 -0.014184256 0.016911106 0.022275621 0.058666497 0.05813037
-0.028647033 0.013629501 0.061335612 0.028918156 -0.14875078 -0.03640231 0.038464293 -0.07199184
0.039282672 0.07545746 -0.006157529 0.0026546093 0.031482797 -0.12877741 -0.13869993 -0.055549882
0.0121092135 -0.031897303 -0.017461447 0.039256487 -0.041375123 0.05057721 -0.0151809575 -0.06120388
0.062496945 0.04959131 0.06247473 0.0023685556 -0.0417509 -0.036273792 -0.005612195 0.07677705
-0.03866632 -0.048745655 -0.06608242 0.0037923038 -0.047733873 -0.062165257 0.05836506 0.11104317
00000000: b5e7 cc3d 052a dfbd 26e2 b33c c8ed 7c3c
00000010: 0198 43be 79cd c0bc 1d02 00bc 5323 5e3e
00000020: 8f26 f5bd 420b b43d 4355 193d f383 af3d
00000030: c2e4 7bbc 3c14 163c 52e3 833d a726 e23d
00000040: 7153 b9bd 4348 3f3d cda0 c9bd b467 2f3c
00000050: 08b6 e3bc 2db7 683d 165d c9bd 483e a7bc
00000060: 3538 c5bd 050a 07bc 68ce fdbc eee2 77bd
00000070: 50b4 5b3d 2bc6 203b 7caa 29bc d709 03bd
00000080: b22c 0f3c e978 c0ba dfee 1fbd d9e1 6abd
00000090: 6257 cdbd 02e7 653d 0957 76bc a327 ba3d
000000a0: 2e08 9c3d c44b e9bd 2e0b 3f3c 23f9 4cbc
000000b0: e1b9 4dba 8b00 193d 8e61 88bd 32e4 d83c
000000c0: 482e 14bd a9fc a93d 12fe 0ebd 23d4 60bc
000000d0: 3f75 8abc e335 a03c d6cd c93c 4a75 8b3d
000000e0: 6360 863c 2058 e6bc 297a e1bc 7074 943d
000000f0: 4708 27bc ce44 fcbc 709b 31bd 2843 de3c
00000100: d0d7 8bbc a575 05be 8903 ff3c 72e6 f1bd
00000110: 674c 103d f042 083d 9927 ab3d 9add a8bb
00000120: 8464 39be f14f 15bd afd5 cdbc 8dfe 6abc
00000130: f39c 8dbc 8588 f83c e9dd ea3c 5714 45be
00000140: 1460 5cbd 3a17 f93c b470 913d 9563 aabd
00000150: 87f9 9a3b 9dbe a0bc ccee d63d 7aea 66bd
00000160: 8664 86bd 7f44 47be d864 f9bd 899b 953d
00000170: 3d99 04be 9343 623d a374 093d 758c 2c3c
00000180: 0b49 3bbd 6979 f03c d61a 523d 65ee 8d3d
00000190: 78ae 09bc 944c 0dbd c18a 253c 0d5e 5c3c
000001a0: b05a d1bc 002e 5abd 0f63 703d b217 2fbe
000001b0: d19d d5bb cdfd a13b 6aaf 5f3c b6db d5bb
000001c0: 4fc0 6e3d ab2a eb3b 0596 42bd 4a21 03bc
000001d0: a883 c0ba a015 39bd 15c9 6fbd 7766 e93d
000001e0: 5193 9d3d c954 653c 836c 73bc b52d 8fbd
000001f0: 26a4 983d 03b1 c6bc e833 e13d a7e2 1a3c
00000200: 3392 23be 1be9 273d dce6 afbd 8694 c63d
00000210: d4ff 043d 4ddb 693c fdc0 9e3d 71ad 0d3d
00000220: 7c70 4cbe bf40 793c e1c8 f9bd a8d2 d4bc
00000230: 4964 e6bd 2652 9ebc d4cd 5abc 0e72 05bd
00000240: 4459 9cbd a891 683d 6b5b d53c b7f7 7dbc
00000250: 289b 193d 1c80 8d3b e9f3 f9bd 3d19 9d3a
00000260: 2db3 063d 20b2 6a3c 8538 99be 564f b4bd
00000270: df14 363d 99aa e7bc 26e4 b43d d264 acbb
00000280: 07c6 c5bd 17bc 7c3c ddbd ac3d 5282 79bc
00000290: 7153 ebbc 137b e13c 5233 a3bd e64b c1bd
000002a0: 3fc3 67bc 28be 93bd 24f3 5f3d 316c 763c
000002b0: 9390 2bbd 551e 62bb d793 353d 6277 8abd
000002c0: 4c88 8dbd c316 b33c ba60 b83c 5fe2 1fbe
000002d0: d9ba b73b f5e8 0fbe b93e b7bd 0c59 6bbd
000002e0: 47e0 b13c 040e 393d 4042 c1bc 0ac8 4dbd
000002f0: b055 063d c1c2 8c3d 4c9b 073d 928e 663c
00000300: 2ca9 71bd 950d 19bd e307 e2bc b6aa 20be
00000310: 1544 f7bc 0bb8 3cbc 0d1d 38be 8073 ab3d
00000320: 27ed 6a3d 9164 0bbb d6d7 2a3c 150f e43b
00000330: 0642 18bd 1eb3 a0bb 6e05 973d e9c4 25bd
00000340: b5c7 8dba 0f35 e13d 80d1 833d 1565 68bc
00000350: 2989 8a3c 5d7b b63c 484c 703d 1c1a 6e3d
00000360: 2fad eabc 454e 5f3c 0d3b 7b3d c5e5 ec3c
00000370: 2052 18be 971a 15bd bc8c 1d3d 7570 93bd
00000380: dee6 203d 7189 9a3d 19c5 c9bb f4f8 2d3b
00000390: 1bf4 003d 3ade 03be 5b07 0ebe 4688 63bd
000003a0: b965 463c bfa6 02bd 4f0b 8fbc 69cb 203d
000003b0: f678 29bd 0c2a 4f3d 8db9 78bc ebb0 7abd
000003c0: ccfc 7f3d 4220 4b3d 81e5 7f3d c539 1b3b
000003d0: fe02 2bbd d493 14bd 81e6 b7bb 493d 9d3d
000003e0: 9360 1ebd 86a9 47bd 3856 87bd 4d88 783b
000003f0: 9884 43bd ffa0 7ebd 3310 6f3d 9a6a e33d

fc2.bias f4 [128]
-0.022041278 0.053089097 -0.10624988 0.015832536 -0.06892128 -0.14799741 -0.042019162 0.006446639
-0.030220667 -0.06847387 -0.061232083 0.005983771 0.009777239 0.015529767 -0.042361405 0.02610057
-0.009637883 -0.019120684 0.05150599 0.04417729 0.04571351 -0.026339838 -0.09477135 0.0048349774
-0.08511052 -0.028489636 0.04790279 -0.012539372 -0.07371773 -0.026974957 0.0014093192 -0.01967448
0.00058091746 0.026588494 -0.048439246 -0.016424617 -0.036079492 0.01956327 -0.04869801 -0.04979637
0.029292421 0.08839474 0.017291965 -0.009128695 -0.018714208 0.0025057385 -0.02295567 0.01718763
-0.075289726 0.037753545 0.033811875 0.05040242 0.014871953 -0.012511291 0.05871226 0.0051351055
-0.031200664 -0.042331908 0.042831838 -0.02934836 -0.018238151 0.0689874 0.033833228 0.0005624958
0.03412312 -0.017350452 -0.051763732 -0.057456642 -0.04231365 0.042446684 0.021264428 -0.005313563
0.096317045 -0.04603591 -0.05992771 0.019056402 -0.08510896 -0.00688777 0.042170547 -0.06637646
-0.09920914 -0.07322473 0.060284104 0.026384834 -0.073633164 -0.00873733 0.023562416 -0.024985846
0.1023562 -0.017930344 -0.0017977983 -0.040469397 0.043944 -0.057929747 0.028436862 -0.0044620303
0.0041474737 -0.020097943 -0.013558459 0.023445975 0.10232779 0.0652324 0.0066779684 -0.021385333
-0.027729291 0.04540586 -0.104368225 -0.03222643 0.06425699 0.0030402595 -0.002174794 -0.019893926
-0.03488882 -0.018509809 0.012455915 0.012822325 0.023922084 -0.05328328 -0.043141413 -0.040598094
-0.034621753 -0.016114818 -0.047628604 -0.0001396842 -0.053137846 -0.08910039 0.016040474 0.005157159
00000000: e98f b4bc f473 593d 8999 d9bd 3cb3 813c
00000010: 9a26 8dbd a28c 17be 491c 2cbd 543e d33b
00000020: 5591 f7bc 073c 8cbd 7ece 7abd 8213 c43b
00000030: b630 203c 9070 7e3c 2783 2dbd ddd0 d53c
00000040: 36e8 1dbc fba2 9cbc f2f7 523d 3ff3 343d
00000050: 173e 3b3d a5c6 d7bc 7b17 c2bd bb6e 9e3b
00000060: 6d4e aebd 1963 e9bc b735 443d f071 4dbc
00000070: 52f9 96bd 96fa dcbc e8b8 b83a 602c a1bc
00000080: b648 183a 1dd0 d93c 3b68 46bd eb8c 86bc
00000090: 17c8 13bd 2743 a03c 9177 47bd 47f7 4bbd
000000a0: a9f6 ef3c 4d08 b53d e1a7 8d3c 8690 15bc
000000b0: 8a4e 99bc 5137 243b 870d bcbc 13cd 8c3c
000000c0: 8031 9abd 76a3 1a3d 527e 0a3d c572 4e3d
000000d0: 7ea9 733c 28fc 4cbc 447c 703d 6344 a83b
000000e0: 8998 ffbc 3964 2dbd 7070 2f3d f96b f0bc
000000f0: 2d68 95bc 4449 8d3d b694 0a3d 7474 133a
00000100: afc4 0b3d 8922 8ebc 3506 54bd a857 6bbd
00000110: 1451 2dbd 93dc 2d3d bd32 ae3c 661d aebb
00000120: df41 c53d 2690 3cbd c276 75bd 2c1c 9c3c
00000130: 9b4d aebd cdb2 e1bb 06bb 2c3d 62f0 87bd
00000140: 292e cbbd d9f6 95bd 77ec 763d 0225 d83c
00000150: fccc 96bd 0527 0fbc f805 c13c 1eaf ccbc
00000160: 21a0 d13d a8e2 92bc 1aa4 ebba 3dc3 25bd
00000170: a0fe 333d be47 6dbd 6cf4 e83c 3936 92bb
00000180: 88e7 873b 71a4 a4bc 4c24 5ebc c611 c03c
00000190: 3b91 d13d 9198 853d dcd2 da3b 4b30 afbc
000001a0: 8a28 e3bc 7ffb 393d 02bf d5bd dcff 03bd
000001b0: 2b99 833d 173f 473b fd86 0ebb 96f8 a2bc
000001c0: 94e7 0ebd e2a1 97bc e513 4c3c bb14 523c
000001d0: 3ff8 c33c 923f 5abd 0db5 30bd 304a 26bd
000001e0: 8acf 0dbd 3903 84bc 3616 43bd 3178 12b9
000001f0: 12a7 59bd 447a b6bd 5067 833c 63fd a83b

fc3.weight f4 [1, 128]
-0.016050339 -0.019393587 -0.013633541 -0.024936218 -0.015344516 0.022621362 0.02640184 0.02426064
-0.05022109 -0.020668874 0.013881748 0.011776938 0.0061932136 -0.043831084 0.031240249 0.027723081
0.01804993 -0.011378285 -0.012249975 0.04881186 -0.02772494 0.06514113 0.046278182 -0.0084108785
-0.023379363 0.027559472 0.014554811 -0.00036032998 -0.031026427 -0.030952843 -0.027528746 0.040088747
0.02805918 0.011355384 0.020570239 -0.04952578 -0.031123433 0.045115776 -0.04391192 -0.017219437
0.03823735 0.006689369 0.028613362 0.0017700279 0.030825423 -0.031193217 0.07442907 -0.09568039
-0.029485917 0.013811749 -0.01311499 0.01595125 0.016679332 0.008182226 0.0145655675 0.022341304
-0.06211012 0.0380366 -0.029421208 0.07562743 -0.037272107 -0.020972116 0.048791997 -0.02438885
-0.046949994 -0.06829601 0.0779301 -0.016505878 0.029316025 0.06251819 0.015408023 0.034464896
0.010508321 0.07377415 -0.014500512 -0.02512392 -0.013524612 -0.018623624 0.03510976 0.021115376
-0.030182937 -0.019721104 -0.008966138 -0.009751685 -0.04845213 -0.008941642 -0.043509297 0.043909185
-0.012448518 -0.022564314 0.01731375 0.10330769 -0.01912292 -0.0146903675 -0.034909163 -0.02946703
-0.035090458 0.011961807 0.011426619 0.05547886 0.0126463035 0.035775382 -0.025751205 0.010764701
0.04315062 0.088931955 -0.014834373 0.014194123 0.015885217 -0.032075223 0.026456498 -0.024181953
0.046803907 -0.022119632 0.012025325 0.01202269 -0.08942142 -0.045515433 -0.029477598 -0.01344133
0.063202396 -0.011910072 -0.012250689 -0.02791344 -0.018286603 -0.022848407 0.026342511 0.009008121
00000000: 007c 83bc 4ddf 9ebc 375f 5fbc 0a47 ccbc
00000010: 9167 7bbc 6f50 b93c ac48 d83c 40be c63c
00000020: a1b4 4dbd c551 a9bc 4570 633c 0ff4 403c
00000030: 71f0 ca3b 3988 33bd 8deb ff3c 841b e33c
00000040: 72dd 933c fc6b 3abc 1fb4 48bc f2ee 473d
00000050: 6a1f e3bc b668 853d 318e 3d3d c8cd 09bc
00000060: 1486 bfbc 67c4 e13c 4d77 6e3c acea bcb9
00000070: 222b febc d190 fdbc f783 e1bc 1934 243d
00000080: 5edc e53c ef0b 3a3c eb82 a83c 8bdb 4abd
00000090: 92f6 febc 52cb 383d fcdc 33bd c70f 8dbc
000000a0: c49e 1c3d 7f32 db3b 9266 ea3c 4800 e83a
000000b0: 9985 fc3c eb88 ffbc 456e 983d 15f4 c3bd
000000c0: 738c f1bc ad4a 623c 41e0 56bc 32ac 823c
000000d0: 18a3 883c be0e 063c 6ba4 6e3c 1c05 b73c
000000e0: 2e67 7ebd 44cc 1b3d bf04 f1bc 8ee2 9a3d
000000f0: a3aa 18bd b7cd abbc 1eda 473d 20cb c7bc
00000100: a34e 40bd c7de 8bbd d199 9f3d 5637 87bc
00000110: 2928 f03c 8909 803d ef71 7c3c 102b 0d3d
00000120: 182b 2c3c e716 973d 8e93 6dbc aed0 cdbc
00000130: 5696 5dbc 9290 98bc 40cf 0f3d 27fa ac3c
00000140: 3542 f7bc 278e a1bc b5e6 12bc 88c5 1fbc
00000150: be75 46bd f77f 12bc ce36 32bd 1eda 333d
00000160: def4 4bbc ccd8 b8bc 91d5 8d3c fb92 d33d
00000170: aca7 9cbc deaf 70bc e9fc 0ebd d764 f1bc
00000180: 03bb 0fbd 74fb 433c b736 3b3c cd3d 633d
00000190: 7132 4f3c 3589 123d 31f4 d2bc 6e5e 303c
000001a0: b4be 303d f521 b63d df0b 73bc 788e 683c
000001b0: b721 823c 4f61 03bd 4cbb d83c 3b19 c6bc
000001c0: 74b5 3f3d 3b34 b5bc de05 453c d1fa 443c
000001d0: 9422 b7bd 646e 3abd 017b f1bc 0639 5cbc
000001e0: 4270 813d 7622 43bc 1db7 48bc baaa e4bc
000001f0: c9cd 95bc 952c bbbc 40cc d73c cc96 133c
